RLC_example/models/model_SS_1step_nonoise.pkl (torch_old, 2380 bytes, 4 tensors)

net.0.weight f4 [64, 3]
000000 08 3c 30 bc 15 d4 68 3e 19 16 2f 3c 59 61 a4 b9
       -0.0107565 0.22737153 0.010686421 -0.00031353047
000010 5e ce b6 be 92 fd 21 39 a8 61 0a bd 04 26 4b bf
       -0.3570432 0.00015448619 -0.03378454 -0.7935488
000020 24 97 b6 3d ac 21 86 bc c9 c0 0d bf ca 55 c9 3d
       0.089155465 -0.016373478 -0.5537229 0.09830816
000030 4a 60 67 bd 3d f8 60 3f 21 fb 02 3e ba 0c 38 bd
       -0.056488313 0.8787878 0.1279111 -0.044934012
000040 d2 ff e9 3c ff 3b 36 3d 19 b7 5a 3d 53 c9 6e 3d
       0.028564367 0.04449081 0.05339727 0.058297466
000050 2d e2 a0 bd b9 21 94 bd 1d 64 2d bf 67 19 fc 3c
       -0.078556396 -0.072329946 -0.67730886 0.030773832
000060 5f 9a 03 3a e2 e9 92 be 0d 96 49 b9 79 01 2b 3c
       0.00050202565 -0.28694063 -0.00019224752 0.010437363
000070 d0 14 f0 be b6 f3 23 bc d4 80 19 3c bc b4 d6 bd
       -0.4689088 -0.010006836 0.009369094 -0.10483691
000080 64 6e 17 bc 57 50 4b 3d 17 be 54 3f 00 61 14 bd
       -0.009242628 0.049637165 0.83102554 -0.03622532
000090 11 0f cd 3c 10 78 89 3f ae a7 b8 bc 23 3e 74 bd
       0.025031598 1.0739765 -0.022540893 -0.05962957
0000a0 62 58 6d 3f 51 c1 0e be a7 7d 93 bc 1e e8 5f 3f
       0.92712986 -0.13940932 -0.018004252 0.8746356
0000b0 c9 0a cf bd 02 df 67 3d 41 6a 5c 3f ce 8f 4a bd
       -0.10109479 0.05660916 0.8609963 -0.04945355
0000c0 8e 9b 72 3d 8b 65 53 3f 33 4d 32 bd 77 38 9d 3d
       0.05923038 0.8257682 -0.043530654 0.076767854
0000d0 87 70 42 3f 5c 57 04 bd 54 69 52 3a 49 1a ec 3e
       0.75952953 -0.032309875 0.00080265594 0.46113804
0000e0 58 8a dc b9 4d fe b1 3d 29 c6 62 3f cd f6 93 3b
       -0.00042064744 0.08691082 0.8858362 0.004515505
0000f0 c1 cf c4 bb 17 ae e7 3e 06 95 bb 3b b1 5b f9 bd
       -0.0060062115 0.45250008 0.005724552 -0.12175692
000100 a8 9b 0e 3f c2 7f f0 bb d5 82 d9 bc bb 15 82 bf
       0.5570626 -0.0073394487 -0.026551643 -1.0162882
000110 24 f6 ca 3c b7 4a 51 bd 39 13 09 be b1 b7 4c 3d
       0.024775572 -0.051096644 -0.13386239 0.04997987
000120 a0 04 d4 3b 87 b3 08 bf d8 0c d5 bb c7 69 87 3c
       0.006470278 -0.53398937 -0.0065017752 0.01652993
000130 10 41 34 3d 0f df 88 bc d8 c7 69 3d 74 00 6a bf
       0.04400736 -0.016707925 0.05707535 -0.9140694
000140 0c 90 0a 3e 9a 18 63 bd d7 9d 19 bf 2b 8d 01 bc
       0.13531512 -0.055443384 -0.6000647 -0.007907192
000150 bf 5b 89 bd 0b a6 7c bf 5e 4c 72 3d 7b 7f 27 3b
       -0.06706952 -0.9869086 0.05915486 0.0025558162
000160 5b b1 a6 3e b4 23 5f bb 3d 6e fc bc c6 f4 f6 3c
       0.32557186 -0.003404838 -0.030814284 0.030146014
000170 3b 14 fd 3c 9c 7a d6 3c 90 2c 24 3f 34 fa 92 bd
       0.030893436 0.026181512 0.64130497 -0.07176629
000180 84 8e b4 bd a7 18 8e 3f b0 1c ac 3d 3e 9c 82 3c
       -0.08816245 1.1101273 0.08403909 0.015943643
000190 ba 86 49 bf 30 21 b4 3d 10 69 2c 3c 78 e3 68 be
       -0.787212 0.087953925 0.010523096 -0.22743022
0001a0 c5 c4 26 bc ea 2e 9c bd 2a 28 65 bf d4 0c 9c 3d
       -0.010178749 -0.07626136 -0.8951441 0.07619634
0001b0 08 7e 57 3d ca c9 2e 3f b6 37 54 bd ab 79 13 3e
       0.052610427 0.68276656 -0.051810943 0.14401881
0001c0 a4 56 1b bf 52 ff b4 3a 3b f4 30 3c c5 70 98 3f
       -0.6067908 0.0013809002 0.010800417 1.1909415
0001d0 1e 38 1f 3e 64 32 81 bd 8b 9b 5f bf f2 b1 44 3d
       0.15548751 -0.063084394 -0.87346715 0.048021264
0001e0 e6 6a 8d b8 1f 11 b4 be 98 2c 64 3a ef 94 94 3b
       -6.743315e-05 -0.35169312 0.0008704155 0.004534356
0001f0 2a af 08 bf 93 be 8a bb 03 b4 89 3d b2 f8 8f 3d
       -0.5339228 -0.004234144 0.06723788 0.07029857
000200 07 ea c6 bd 19 28 e5 38 f8 32 bd be 20 5a b9 b9
       -0.09712606 0.0001092704 -0.3695295 -0.00035353098
000210 93 3a cf ba a8 29 d8 3e a9 5b 2e 3a 32 b5 83 3c
       -0.0015810303 0.4221928 0.00066512317 0.016077612
000220 3c 9e 0b be bf bf 84 bc cb 26 7e 3d cc 03 33 3f
       -0.1363458 -0.016204713 0.062048715 0.6992767
000230 1d 79 7c bd ee 30 c3 3c 17 46 1c 3e b4 51 c6 bc
       -0.06163894 0.023827042 0.15261112 -0.024208881
000240 16 cb 6c 3d be 22 57 3f 7f 3a 48 bd 0a b7 9b 3a
       0.057810865 0.8403739 -0.04888391 0.0011880111
000250 59 cf d5 3e 1e c9 85 b9 1d 46 60 bc 2d 4d 73 bf
       0.41759756 -0.0002551758 -0.013688591 -0.95039636
000260 2c 35 f2 bd d0 43 c9 3a ff ec 89 be 00 2a be ba
       -0.11826548 0.0015355293 -0.26938626 -0.0014508367
000270 83 a1 78 bd 1e a4 84 bf 9a 96 32 3d 88 82 a7 ba
       -0.060700905 -1.0362585 0.043600656 -0.001277999
000280 ce 11 d4 be 3f 7e 9b 3a a3 de 86 3b 9e aa e2 3e
       -0.41419834 0.0011863186 0.004115896 0.44270796
000290 a3 85 90 bb ce ed bb bc a1 30 7a bf 98 fa 2a bd
       -0.004410462 -0.022940543 -0.9773045 -0.04174289
0002a0 5d 55 6b bb 52 21 e4 3e 85 79 65 3b 3a 1c ce 3b
       -0.0035909035 0.4455667 0.0035015058 0.006289986
0002b0 7e 08 63 bf 44 3a 03 be a1 1e e1 3c fd 55 bd 3f
       -0.88684833 -0.12815195 0.027480425 1.4791867
0002c0 cd 94 94 3d 70 0b 04 3e c7 04 cc bf df 1c fc bd
       0.07254944 0.12894988 -1.5938958 -0.12310194
0002d0 4e 60 92 3a d6 98 ef 3e 58 ba e1 ba 02 a7 3b 3d
       0.0011167617 0.46796292 -0.0017221672 0.045813568
0002e0 2d 85 40 bf 49 3c d3 bd f5 2f 94 3c c4 2a 0a 3f
       -0.7520321 -0.10314233 0.018089274 0.53971505
0002f0 95 45 c2 bd fc 1c 27 bc 27 2e b6 3e 9d bd 29 3c
       -0.09485928 -0.0101997815 0.35582086 0.010360149

net.0.bias f4 [64]
000000 9b a1 fb bf 41 b6 f2 3f fd 65 cd 3e b2 ae 25 3e
       -1.9658693 1.896187 0.40116873 0.16179922
000010 86 1a c7 3e 9e d9 90 3f 04 bf 8b 3e 67 93 13 3d
       0.38887423 1.1316411 0.2729417 0.036029246
000020 dd 80 8d bf 93 c5 38 c0 56 2f ba bf c1 47 b2 3d
       -1.1054951 -2.887059 -1.4545696 0.08705092
000030 50 6c 93 3f 56 f5 cd be e2 2b e3 bd b7 d9 86 3e
       1.1517429 -0.4022624 -0.11092354 0.26337978
000040 b5 bc 62 bd 42 41 21 be 73 79 17 40 13 d5 17 3f
       -0.055355746 -0.1574755 2.3667877 0.593095
000050 ae 9e 1c c0 22 73 fb bd 7c 22 94 bf 79 fb af 3f
       -2.447185 -0.12277819 -1.1573024 1.3748618
000060 20 c0 34 c0 96 c1 b3 3f 46 72 a7 3e e2 07 c5 be
       -2.8242264 1.4043453 0.3270437 -0.38482577
000070 ef 6b b7 be 95 56 12 40 30 cf 9d bf 7e bc a7 be
       -0.35824534 2.2865345 -1.2328854 -0.32760996
000080 85 70 35 3f 6f 85 3c 3d 62 13 f6 bf 53 58 ca 3e
       0.70874816 0.04602569 -1.9224665 0.3952051
000090 cf 36 80 be d5 21 61 3e 06 b0 26 be 6a 57 12 3e
       -0.25041816 0.21985562 -0.16278085 0.14291158
0000a0 99 d8 f1 3f 72 f4 28 40 f8 f1 9f 3e 5f 39 f7 3f
       1.8894225 2.6399198 0.31239295 1.9314383
0000b0 31 61 19 40 b8 fb d2 3f 57 ad 93 be 96 63 76 3f
       2.396557 1.6483068 -0.28843185 0.96245706
0000c0 36 44 bc 3e c5 0e 17 40 65 96 35 3e c8 ef ef 3f
       0.3677079 2.3602765 0.17733152 1.874505
0000d0 9c ca 75 be 3c ae ff 3f 40 a4 fa 3f dd 9b 16 bf
       -0.2400307 1.9975047 1.9581375 -0.5883158
0000e0 ec dc 07 40 cc a0 f3 bd 59 80 3e 3f 55 ad 8d bf
       2.122859 -0.11895904 0.74414593 -1.1068522
0000f0 a0 e5 16 40 cd 00 9e be a5 ec 0e be 48 a3 18 c0
       2.3577652 -0.30859986 -0.1395746 -2.384966

net.2.weight f4 [2, 64]
000000 0e 71 94 3f ca 67 28 c0 b3 61 2a 3e a1 c8 89 3d
       1.1597002 -2.6313348 0.16638832 0.0672772
000010 1d bf 83 bc 23 c0 1e be b1 b7 0d 3d 08 3b e2 3c
       -0.01608234 -0.15502982 0.03459901 0.027616039
000020 a7 9d 7d be 4f ae ff bf 65 d7 08 bf ba b3 05 be
       -0.24767171 -1.997507 -0.53453666 -0.13056841
000030 bf fa 04 bf 69 da 60 bd 97 a4 82 bd b2 2d 81 bd
       -0.5194511 -0.054895792 -0.06379049 -0.06307544
000040 6a 64 49 be 9e 55 69 bc 95 27 95 3f 90 fe f6 bc
       -0.19667211 -0.014241604 1.1652704 -0.030150682
000050 3f 82 d4 3f 0e 79 f3 3b 87 24 05 3f 4e 9a 15 3e
       1.6602248 0.0074302023 0.5200886 0.14609644
000060 71 21 f3 bf b9 6b 15 bf 5e bf 6a 3d 79 76 70 3d
       -1.899458 -0.58367497 0.05731141 0.058706734
000070 ef 6a b7 3e 94 c4 d0 3f fd c8 aa 3d 07 c7 5f be
       0.3582377 1.6309991 0.08339117 -0.21853267
000080 27 2f 47 bf 4a 8a a6 3d b7 a0 b0 bf 68 6d aa 3e
       -0.77806324 0.08131845 -1.3799046 0.33286595
000090 da 0f 84 be 18 29 5c bc cd b6 96 bd 3c ff d2 3d
       -0.25793344 -0.013437532 -0.07359085 0.10302588
0000a0 05 a2 d0 bf 0a 29 11 40 26 f4 12 bd d2 f4 d4 bf
       -1.6299444 2.2681298 -0.03587737 -1.6637213
0000b0 8f 80 88 3f 34 ee 7a 3e d7 db a9 be 55 f0 1a be
       1.0664233 0.2450493 -0.33175537 -0.15130742
0000c0 f5 64 7d be 58 39 9a 3f f8 ea 56 3d c2 4f 14 c0
       -0.24745543 1.204875 0.052470177 -2.317368
0000d0 f2 96 4e 3e 00 20 c2 bf 19 4c 87 3f 0b c2 c4 3d
       0.20174769 -1.5166016 1.0570098 0.09607323
0000e0 32 45 60 bf b0 db 31 3d fc 3c 9f bd aa d8 0c 3f
       -0.87605584 0.0434224 -0.07775304 0.55018103
0000f0 0f 8d 8f 3f 0f eb 18 3d f7 77 89 bd 63 f0 25 40
       1.1214923 0.037333544 -0.067123346 2.592797
000100 f0 12 92 3f 89 50 0c c0 77 4a 8f 3e 0f 6f 42 3e
       1.1412029 -2.1924155 0.279865 0.18987678
000110 39 36 35 be 14 86 6d be 63 74 61 be 24 6b 3e 3e
       -0.17696466 -0.23195678 -0.22017054 0.18595558
000120 f0 55 34 bf 21 2a ed bf 6f c1 07 bf 7a 0e 5d be
       -0.7044363 -1.8528482 -0.5302953 -0.21587554
000130 35 17 33 bf 75 e0 42 be d2 0c 43 be c1 bf 9a be
       -0.69957286 -0.19030936 -0.1904786 -0.30224422
000140 bb 55 9b be 81 4e 16 be 3c 7e a8 3f 31 f3 23 be
       -0.30338845 -0.14678384 1.3163524 -0.16010739
000150 ad 42 0b 40 70 94 b2 bd a0 b3 41 3f 02 fc ec 3d
       2.1759446 -0.087197185 0.7566471 0.11571504
000160 05 da eb bf e3 ff 01 bf dd 81 50 3e d1 ee 5d 3e
       -1.8425909 -0.5078108 0.20362039 0.21673132
000170 40 d8 cc 3e 9a 1c a2 3f cc 4a 19 3e 5a a1 b0 be
       0.40008736 1.2664979 0.14969939 -0.344981
000180 e8 71 83 bf 80 77 4b 3e e2 d0 ca bf 69 de d4 3e
       -1.0269136 0.19869804 -1.5844996 0.41575935
000190 43 bd 7c be a4 11 94 3d 72 d9 68 be 95 75 91 3e
       -0.24681573 0.07229927 -0.22739199 0.2841002
0001a0 61 f6 11 c0 ec 01 2f 40 39 03 36 3e fb 6d 21 c0
       -2.2806628 2.7344923 0.17774667 -2.5223377
0001b0 c3 24 ba 3f a7 ea f1 3e ec c7 b9 be 95 9a 81 be
       1.4542469 0.47249338 -0.3628534 -0.2531325
0001c0 79 1d 85 be 3c 5d a7 3f 91 63 58 3e 0e 76 f1 bf
       -0.25999048 1.3075328 0.21131732 -1.8864152
0001d0 f7 a5 9d 3e 78 7c d7 bf 59 3d 79 3f 61 87 73 3e
       0.30790684 -1.683486 0.97359234 0.23782112
0001e0 f0 b3 99 bf a0 70 cd 3d c6 ae 34 be 21 ad 3a 3f
       -1.2008038 0.10031247 -0.17644796 0.72920424
0001f0 e3 cd ad 3f 2b aa 66 3e ac d0 38 be fc 15 f9 3f
       1.3578457 0.22525851 -0.18048352 1.9459834

net.2.bias f4 [2]
000000 40 3b cd be ea c7 95 be
       -0.40084267 -0.29254085
