RLC_example/models/model_SS_128step_noise.pkl (torch_old, 2380 bytes, 4 tensors)

net.0.weight f4 [64, 3]
00000000: 604b 5cbc ab54 753e fff1 cc3b 3505 193c
00000010: b042 36be d0f3 05bc bc59 46bd 3f2a db3e
00000020: d23b 1fbb 2001 a73c bf94 63be fae8 e43c
00000030: e151 083d d415 213e d05d a6bd 3b95 edbb
00000040: a074 b23e 20b3 6e3c 848a 65bc f40e cf3e
00000050: 062d b73c c4f0 40bc c49d e3be b844 483c
00000060: 077d 04bd db2f 013f 52a6 ec3c 8bf6 d13c
00000070: 1f4d fbbe e637 1dbd 58ea 853c 3800 b33e
00000080: 0b5a f53c ad87 323c 38d8 d23e 5dfa 4abc
00000090: ebd1 c7bb a86c a8be 8dd4 4cbd cfad 9f3c
000000a0: e8d0 b83d 029b 19bd cd5b 26bd 563a cc3e
000000b0: 86b8 693d 6f19 0cbc f14f 173e 38e5 ff3b
000000c0: fee2 83bc 351f 913e c411 7d3c 7914 823c
000000d0: f421 c53e 8783 7dbc 836d dc3b e0bc e1bd
000000e0: 681c fcbb b43f 673c f170 713e c022 84bb
000000f0: d77f 933b 9de0 f7be 9a8a 63bc aef5 9abc
00000100: 3da7 09bf f208 dd3c 53a4 5c3c 768a bf3e
00000110: 38c5 68bc 017f 72bc 483c 863e 0f6e 83bd
00000120: cd5f 503c 268f 5ebe d30a 62bc 7552 12bd
00000130: c5e6 5dbe e829 8f3d cc8c ceba 643d 55be
00000140: 83db 133d 873e 0dbd a457 33be c581 a7bc
00000150: 61be 73bc 1294 553e 3974 0dbb b1e8 1abd
00000160: 812e 40be 4daa b4bc e169 df3b c644 bdbd
00000170: 2479 d43d ae37 7b3c 615b 6f3e cd5f 83bc
00000180: 9568 253c 2174 46be 4bb3 21bc dca3 b43d
00000190: 9c11 053c 9616 1c3b 1146 02bd f741 583e
000001a0: 785e 0f3d 2868 35bc 3431 ffbe a389 363c
000001b0: b26a 583d af19 ffbe 8d54 17bd 8f56 32bd
000001c0: 13f5 f63e e8df 9b3d 74fc 933d fe3e 82bd
000001d0: a37b 333d eacd df3c 2999 65be c849 1a3a
000001e0: a3a0 99bd 9174 8a3e 77ad 1a3c 5877 813c
000001f0: 604c 8cbe 8c76 7fbc bc63 8e3c 6770 39be
00000200: 3f3c b53a f6dd a13c d3f3 72be 6ee0 b7bc
00000210: e4c1 d3bc 8507 ecbd c417 dc3c e8db b03c
00000220: d838 193d 0e2b 17bd 9018 533d 6da4 dfbe
00000230: ff60 96bd abb5 1abd 9777 023f 2897 393d
00000240: 1b07 c13c 028c 763b 6eec 1ebd ae38 84bc
00000250: 5c76 c6be 83fe 823c fd3e 41bc aeb5 233e
00000260: e3a3 623c 7883 4e3d 4fb0 ecbe 1985 75bd
00000270: 41ea 11bd 29c8 37be 14f7 adbc ecc7 b33b
00000280: 7f9f b53e 9d9a 583c 6515 22bd cf94 ca3e
00000290: 2c34 a03d cabc 723c aa50 e4be 1f40 54bd
000002a0: 3de6 a63c 57f9 a23d 3ab0 1bbd dd4e a03c
000002b0: 9069 9e3e 93af 36bd 2309 d33b 6f7c d3bd
000002c0: 54bf eebb 40e5 86bd 8371 38bc 5021 6f3d
000002d0: ed92 103d 308c 423e a105 39bd 1c09 473d
000002e0: cc15 e9be 2cd8 89bd 9f88 1b3a d277 68be
000002f0: dbe0 a53c e95f 113d 2f09 f9be 0a4d a7bd
-0.013445705 0.2395808 0.006254434 0.00933962 -0.17798877 -0.008175805 -0.04842542 0.4280567
-0.002429713 0.020386279 -0.22224711 0.027943123 0.03328121 0.15730983 -0.08123362 -0.0072504557
0.34854603 0.014569074 -0.0140100755 0.40441096 0.022360336 -0.011776153 -0.44456303 0.012223415
-0.032345798 0.50463647 0.028887901 0.025630256 -0.49082276 -0.038383387 0.016347095 0.34961104
0.029950162 0.010896605 0.41180587 -0.012388793 -0.006098022 -0.32895398 -0.05000739 0.019492058
0.09024221 -0.037501343 -0.04061489 0.39888257 0.05706074 -0.008550986 0.14776589 0.0078093074
-0.01609945 0.28344122 0.01544613 0.015878903 0.38502467 -0.015473253 0.006726922 -0.11022353
-0.007693816 0.014114309 0.2357824 -0.004032463 0.0045013237 -0.48413554 -0.013888026 -0.018915977
-0.5377081 0.026981805 0.013466912 0.37410325 -0.014207177 -0.014800788 0.26217866 -0.064174764
0.012718153 -0.21734294 -0.013796526 -0.03572317 -0.21670063 0.06990415 -0.0015758513 -0.208242
0.036098015 -0.03448346 -0.17513901 -0.020447621 -0.014876933 0.20857266 -0.0021584167 -0.037819568
-0.1876774 -0.022053862 0.0068180417 -0.09241633 0.10374668 0.015333099 0.23374702 -0.016036892
0.010095735 -0.19380237 -0.009869407 0.08820316 0.008121874 0.0023817173 -0.0318051 0.21118914
0.0350022 -0.011072196 -0.49842227 0.011141214 0.052836128 -0.49824283 -0.03694587 -0.04353958
0.48233852 0.07611066 0.07225886 -0.06359671 0.04381908 0.027319867 -0.22421707 0.0005885628
-0.07501342 0.27042058 0.009440771 0.015803978 -0.2740202 -0.015592229 0.017381541 -0.18109284
0.0013827159 0.01975916 -0.23725824 -0.022445884 -0.02584929 -0.11524872 0.026866801 0.021589234
0.037407726 -0.036906295 0.051537097 -0.43680134 -0.07342719 -0.03777091 0.5096373 0.04531017
0.023562958 0.0037620072 -0.038799696 -0.016140308 -0.38762176 0.015990501 -0.011794803 0.15987274
0.013833019 0.050418347 -0.46228263 -0.059941385 -0.035623793 -0.17947449 -0.02123598 0.005486479
0.35473248 0.013220456 -0.039571185 0.39566657 0.07822451 0.014815519 -0.44592792 -0.051818963
0.020373458 0.07957714 -0.03800986 0.019568855 0.30939913 -0.044601034 0.006440298 -0.10326468
-0.0072859917 -0.06586695 -0.011257532 0.05838138 0.03529637 0.1899879 -0.045171384 0.04859267
-0.45524442 -0.06730685 0.0005933139 -0.22701958 0.020248821 0.035491858 -0.4863982 -0.08168991

net.0.bias f4 [64]
00000000: 1524 00bf 81f3 803f 27e4 94be 100f e6bd
00000010: f41d f8be 0630 14be 9e52 f43e 9340 1ac0
00000020: d614 38bf eb2d 293f 78a2 0cbe 63b9 b23f
00000030: 801f 0cbe 3dc9 4abe 3662 c73d 310d a1bf
00000040: c4d4 0bc0 480e 1fc0 d292 97bf 8e40 283f
00000050: 030a 75bf efa5 3a3e 0ce1 12c0 6199 413e
00000060: 30b6 a73f 1a2f 093f 6faf e5bd c38f 34bd
00000070: 46b3 3d3e 64a2 bb3c b4b2 253d 7564 213f
00000080: 722d c7bf 1edd f13e 0a32 61bf 6c1b 0140
00000090: 4cd6 4bbf 27f9 973e 9a55 823d 0307 173e
000000a0: fdab 97be 9c38 00c0 f9e5 e33c 5b58 f5be
000000b0: 71b7 483f 6bfa b5be 2399 3abf df54 5bbf
000000c0: 4c05 0fbf 135f 22c0 77dd 6f3f fd7a f3be
000000d0: 723a 16bd 6f1f f8be 7598 573e c009 cf3e
000000e0: 6665 80be 0b7d 5f3d 713b 8fbf d9e2 99be
000000f0: b80f 993e 9216 31bf ec01 dfbd 3208 903e
-0.50055057 1.0074311 -0.29080316 -0.11233342 -0.48460352 -0.14471444 0.47719282 -2.4101913
-0.71906793 0.6608569 -0.13733852 1.3962826 -0.13683891 -0.19803329 0.09735529 -1.2582151
-2.1848612 -2.4852467 -1.1841681 0.657235 -0.957184 0.18227361 -2.2949858 0.18906166
1.3102474 0.53587496 -0.11215102 -0.044082414 0.18525419 0.022904582 0.040453628 0.6304391
-1.5560744 0.47239012 -0.8796698 2.0172987 -0.79623866 0.29682276 0.063639835 0.14748769
-0.29623404 -2.0034552 0.02781962 -0.47918972 0.7840491 -0.35542616 -0.7288992 -0.8567638
-0.5586746 -2.5370529 0.93697304 -0.4755477 -0.03667683 -0.48461482 0.21054251 0.40437126
-0.2507736 0.05456261 -1.1190015 -0.30055884 0.29894805 -0.69175065 -0.108890384 0.28131253

net.2.weight f4 [2, 64]
00000000: 7950 033e 0bec 1abe 3a9d 0e3e d42a 67be
00000010: 3697 333e 5837 733e e859 c43e 5eb6 7fbd
00000020: 6b35 0b3e 6bcb 5bbe 8078 8a3e 90ed a43e
00000030: 58b4 2ebe f7c0 6a3d 0a20 213e 9d16 c33c
00000040: f598 063f b58d eb3e 9190 19bc 7dfd ef3e
00000050: d1ff d2be 40f7 aebe adc9 d83e 1f3d af3e
00000060: c765 05be 1fca 6cbe f095 70be 01a3 e4bd
00000070: c9d6 553e eec9 25be 67b8 5bbd 602a e93e
00000080: 8992 15be 01cd e83d d96b b8bc 5696 d6be
00000090: c678 e3bd ed2e 823e 556d 1cbd efd7 2ebe
000000a0: 48a8 903d 8f83 46be a470 1dbe b7ce 88bd
000000b0: 82d7 12bd 029f c13d 00a3 32be d858 123e
000000c0: 19d6 133e 7ea4 88bc 3070 223e bd30 1abe
000000d0: 8c78 fbbd 3dde 493e 491f 283e 47b9 3bbe
000000e0: f2c3 5e3d 21d8 313e ab6a 163a e71e 1cbd
000000f0: cafc 4a3d 1edd 24be 7dde 57be 6b7c 3fbe
00000100: 6d20 beb9 4e00 2e3e aaf6 c33c 895d e23c
00000110: edf5 9abd 45e2 2bbc 6188 13bd e04b 683f
00000120: 32d7 213b 086e 9b3c 5d0e d9bc 01fe 9e3d
00000130: 4e09 2cbd 1a89 9ebc 528e 2c38 e197 9c3e
00000140: 7081 6f3f bc02 54bf bb90 bfbe 732b 1ebd
00000150: 89d6 873d 2529 bc3b 9a13 35bf 2cee 96bd
00000160: 2e73 873e e83a 203e 671d 123b 2777 6a3d
00000170: 5cea 79bc 42e7 843d b777 813d 5297 16bd
00000180: 264c 25bf 42e5 8dbd 3c46 0e3d 27ac 9abe
00000190: 332d 0ebd f794 173c 8454 66bd 0662 373d
000001a0: 09f2 073d 553a 80bf 8f90 be3c fcf3 ccba
000001b0: 57af ed3d 30f1 bebc 000d a8bc 170d 653c
000001c0: 8e95 37bd 7161 6e3f 3a6a d6bd 7128 c2bb
000001d0: a102 773d 5eaa 4bbd de73 9c3b 1b52 5d3c
000001e0: ee3e b3bc 43c1 51bd 10e0 a6be 55e6 943c
000001f0: a3ab 3fbd 9e0a 75bc f5d3 d23b 6e80 593c
0.12823667 -0.15129106 0.13927165 -0.22574931 0.17538151 0.2375158 0.38349843 -0.06242978
0.13594596 -0.21464317 0.2704506 0.32212496 -0.17060983 0.057312932 0.15734878 0.023814494
0.52577144 0.4600655 -0.009372846 0.46873084 -0.41210797 -0.34173012 0.42341366 0.3422632
-0.13027106 -0.23123978 -0.23494697 -0.11163903 0.20882715 -0.16190311 -0.053642657 0.45540142
-0.1460668 0.113672264 -0.022512363 -0.41911572 -0.1110702 0.25426427 -0.038190205 -0.1707456
0.07063347 -0.19386123 -0.15375 -0.06680053 -0.035850056 0.094541565 -0.17444992 0.14291704
0.1443714 -0.016679998 0.15863109 -0.15057655 -0.12278852 0.19713683 0.16418184 -0.18332396
0.054386087 0.17367603 0.00057379407 -0.03811541 0.049557485 -0.16099975 -0.21080966 -0.18699805
-0.00036263783 0.16992304 0.02392133 0.027632492 -0.07566438 -0.010490959 -0.036018733 0.90740776
0.0024694917 0.018973365 -0.026496107 0.07763291 -0.04200106 -0.019352484 4.114054e-05 0.30584624
0.9355688 -0.8281667 -0.37415108 -0.038615655 0.06632716 0.0057422095 -0.70733035 -0.073696464
0.26455063 0.15647471 0.0022295357 0.05724254 -0.01525363 0.064894214 0.06321662 -0.036765404
-0.6456932 -0.06928493 0.03473495 -0.30209467 -0.034711074 0.009251825 -0.056232944 0.044771217
0.033189807 -1.0017802 0.02326229 -0.0015636678 0.11605709 -0.023308367 -0.020514011 0.013980172
-0.04482036 0.93117434 -0.1046948 -0.005925231 0.06030524 -0.04972302 0.0047745546 0.013508345
-0.021880593 -0.0512097 -0.3259282 0.018176237 -0.046794545 -0.014956145 0.0064339587 0.013275249

net.2.bias f4 [2]
00000000: 1ffe 9e3d f7a6 83bc
0.077633135 -0.016070826
