RLC_example/models/model_SS_128step_noise.pkl (torch_old, 2380 bytes, 4 tensors)

net.0.weight f4 [64, 3]
000000 b8 37 bf bc c8 4c 84 3e ec 60 54 3c 02 47 49 bc
       -0.023341998 0.2583983 0.012962561 -0.012284996
000010 05 46 3d 3e d1 50 37 3c 47 a2 9b bc 81 27 84 3e
       0.18483742 0.011188702 -0.018998278 0.2581139
000020 56 05 fc 3c c2 88 16 bd c0 9e e5 bd 0e db fb bc
       0.030764263 -0.036751516 -0.1121192 -0.030744102
000030 15 41 81 bc 30 a9 09 3e a8 26 64 3c 14 3b d2 bc
       -0.015778104 0.13443446 0.013925232 -0.025662936
000040 e5 f8 8c 3e 94 d3 75 3c a9 73 a5 bb fb 2b 3b 3f
       0.2753364 0.015004057 -0.005049188 0.73113984
000050 2d df 11 3d 81 8b ff bb 54 2b be be f7 d8 11 3c
       0.035613228 -0.0077986126 -0.37142432 0.008901826
000060 ae ec a3 3c e0 7f b4 3e b7 7e 38 bc c0 1c 03 ba
       0.020010319 0.3525381 -0.01126068 -0.00050015375
000070 5d b8 1c be 58 d4 7d bd 40 de f3 bb d5 a5 be be
       -0.15304704 -0.061970085 -0.0074422657 -0.37235895
000080 83 da e3 3b f7 27 19 bc 4d c7 a5 be b9 9d 18 3c
       0.006953539 -0.009347907 -0.32378617 0.009314948
000090 83 9c 5a bc 8a 57 70 3e 90 e1 4f 3c 10 fa bf 3b
       -0.013342979 0.23470894 0.012688056 0.005858667
0000a0 08 1b a0 bd 6b 13 f8 bc 7b c6 09 3c 3b 0e 1b be
       -0.07817656 -0.030282697 0.008409138 -0.15142147
0000b0 3a 43 07 bc 66 19 2f bc b7 a3 a1 be 04 cf 23 3c
       -0.008255774 -0.010687208 -0.31570217 0.009998087
0000c0 7e b3 27 bc 44 bc 3b 3f b6 7e 18 3c e9 8b 17 bc
       -0.010235665 0.73334146 0.009307554 -0.009249666
0000d0 f9 50 00 3e 15 2d 07 3c 43 33 60 bc aa 30 90 3e
       0.12530889 0.0082504945 -0.013684097 0.28162128
0000e0 12 ed 5c 3c f0 13 39 3b 88 a1 de bd 8d d1 16 bd
       0.013484256 0.0028240643 -0.108706534 -0.036820937
0000f0 14 eb 61 3d 69 8d 05 3d a4 9a db 3a 42 33 a5 3c
       0.05515583 0.032605562 0.001675446 0.020166043
000100 0e 13 bc 3c b8 0c 56 3d 1e f5 1d bc d3 30 95 be
       0.022958305 0.052258223 -0.00964096 -0.29138812
000110 e2 47 25 3c 0d d9 4e bd bb b6 98 bc a8 4b 5a 3d
       0.010087939 -0.050499965 -0.01864182 0.053294808
000120 34 64 9b 3b dd 89 12 be c8 04 5e bd 10 1b 26 bc
       0.0047421698 -0.14310403 -0.05420378 -0.010138288
000130 2b 3c 87 be e8 24 26 3c 94 59 8b 3c be 68 58 3e
       -0.26413092 0.010140635 0.017010488 0.21133706
000140 06 d4 f4 3d 5a dc 5f 3c 26 ee c3 3e 1a c4 c7 bc
       0.11954503 0.013663376 0.3826763 -0.0243855
000150 1d 3c ce bc 8c eb 5f 3f d2 ae 05 bd 7a 71 11 bc
       -0.025175149 0.8746879 -0.032637425 -0.008877153
000160 d6 a0 c8 be fd ee 1a 3c 78 0f 07 3d 8f df 94 be
       -0.39185208 0.009456393 0.032973737 -0.29076812
000170 77 85 10 bd 3b 15 2f 3c 07 a1 48 be 9c 9c 18 bc
       -0.035283532 0.010686214 -0.19592677 -0.009314682
000180 29 7d 2c 3c a5 00 56 be 76 2b 1d bc 6a c9 a3 3c
       0.010527887 -0.20898683 -0.009592881 0.019993503
000190 7a 1f 3c 3e 52 1f 53 bd 4a 8a a1 bc a9 e2 81 3e
       0.18371382 -0.05154354 -0.019719262 0.2536824
0001a0 c6 67 31 3c 34 f9 1e bc 2b 0d a0 be d6 f3 89 ba
       0.010827964 -0.009702969 -0.31260046 -0.0010524939
0001b0 01 ac aa 3b 7c 63 ad be 86 9d 2b bc 4f 61 5c 3c
       0.0052084927 -0.33864963 -0.010474568 0.013450935
0001c0 e3 9c 8d be 2a 10 76 bc 6c d5 1b 3c d0 34 2c be
       -0.27658758 -0.015018502 0.009511333 -0.16817021
0001d0 e3 95 03 bc 8d 04 be 3c a8 75 60 be 32 62 ce bc
       -0.008031341 0.02319553 -0.21919882 -0.025193308
0001e0 98 8f c8 3c 08 a6 5d 3e 99 bd d5 bc 20 b7 56 bc
       0.024482533 0.21645367 -0.026091384 -0.013105184
0001f0 2f 6b d9 be c2 70 c6 3c 7d 97 fe bc d0 c8 2a 3e
       -0.42464587 0.024223689 -0.031078095 0.16678166
000200 db 98 41 3d 57 a3 3a bc b1 05 28 be f8 be cc 3c
       0.047264915 -0.011391482 -0.16408421 0.024993405
000210 26 93 e8 3c a8 26 d8 bd 8b 83 1e bd 07 7a 9d bc
       0.028390478 -0.10554248 -0.038699668 -0.019223226
000220 98 07 05 be 27 ce a8 3c f9 6e 01 bd 56 32 6e bd
       -0.12991178 0.020606114 -0.031599972 -0.058153473
000230 ec 6a 9d 3c b3 27 e5 3c a9 71 d9 bd 06 54 16 bd
       0.019216023 0.027973032 -0.10617382 -0.036701225
000240 01 a2 79 3c 90 47 ca be cb ae 9a bc 11 62 31 3c
       0.015236379 -0.39507723 -0.018882176 0.0108266035
000250 0f 2f 66 be a6 35 23 bc 02 29 29 bc ea 8a 9c be
       -0.22478889 -0.009961521 -0.010324718 -0.30574733
000260 73 b4 23 3c 60 17 b6 3c 3d af 4d 3e de 5f 6a bd
       0.009991753 0.022227943 0.2008638 -0.057220332
000270 a9 51 1b 3c 64 52 19 be 18 3f 1a bd 9a dd f5 39
       0.0094799185 -0.14972836 -0.037657827 0.00046895148
000280 21 7a bd be 28 1a fb 3c ce f0 c1 3a 67 47 aa be
       -0.3700724 0.03065212 0.0014796497 -0.332576
000290 bb 03 12 bc fd 10 65 3c 36 a0 e9 3e a2 db 65 bc
       -0.008912022 0.013981101 0.45630044 -0.014029415
0002a0 b6 f1 21 3b 7d 8e c6 be d0 94 ca bc 45 fa 6a 3d
       0.0024710721 -0.38780585 -0.024729162 0.057367582
0002b0 22 00 bd 3c 14 82 aa 3a 73 d6 38 3d 12 62 a1 be
       0.023071352 0.0013008737 0.04512639 -0.31520134
0002c0 09 c4 e0 bb bf fa c5 bc 1e 90 19 be ca 84 40 3d
       -0.0068593067 -0.024167417 -0.14996383 0.047001638
0002d0 41 24 1f bc 48 f8 ee 3d 80 bc 50 3c 65 7d 07 3c
       -0.009713233 0.1166845 0.012740254 0.0082696425
0002e0 9e 33 bb 3e 3e 32 09 bc d9 1c 39 3d 84 b0 24 bf
       0.36562818 -0.008373795 0.045193527 -0.6433184
0002f0 50 19 af bc 55 64 52 bd 2f 6e c7 3e d4 80 50 3b
       -0.021374375 -0.051365215 0.3895125 0.0031815069

net.0.bias f4 [64]
000000 78 15 ac 3e ce 29 d7 bf 8f 98 75 3e 28 95 b4 3e
       0.3361013 -1.6809633 0.23983978 0.35270047
000010 60 ad 12 bf a7 0d b9 3e ba cd c8 be 03 85 ed bf
       -0.572958 0.36143228 -0.39219457 -1.8556217
000020 ff 54 4c 3f 89 0e 22 bf ed 7a b6 bf e5 4f fc bf
       0.79817194 -0.6330343 -1.4256264 -1.9711882
000030 9b 3e ef bf f2 aa 19 bf 8f 32 be bf 40 5f 02 c0
       -1.8690981 -0.60026467 -1.4859179 -2.0370636
000040 db 22 b2 bd a9 ca 9e bf b9 60 df bf e8 bd 1b bf
       -0.086980544 -1.2405597 -1.7451392 -0.6083665
000050 3e 96 fb 3d a2 86 49 3d 5a a4 fa bf 58 69 12 be
       0.12284516 0.04920066 -1.9581406 -0.14297998
000060 91 ef 21 bf fb 6a f1 bf 70 8d 85 3f ef 53 6f be
       -0.63256174 -1.8860773 1.0433788 -0.23371862
000070 69 c7 3d 3e 3f fd b2 3f 4e c0 81 3e 67 f0 d4 bf
       0.185331 1.3983535 0.2534203 -1.6635865
000080 84 b5 d7 bf a1 13 d0 be a8 5b be 3e 7a 72 b2 3e
       -1.6852269 -0.40639976 0.37179303 0.34852964
000090 4f 78 f3 be 75 91 d6 bf 11 c5 c9 bf 29 c9 52 bf
       -0.47552726 -1.676314 -1.5763265 -0.82338196
0000a0 d6 d9 80 3f 98 a7 e4 be 90 80 a6 be 4f fd 47 3f
       1.0066478 -0.44659114 -0.3251996 0.78120893
0000b0 98 eb 46 bf 9e b7 8b 3f 5b 47 c2 3e 56 ae 4a bf
       -0.7770324 1.091541 0.37945065 -0.79172266
0000c0 09 df 99 3e 88 b2 d8 bf 69 46 01 c0 90 f8 dd be
       0.30052975 -1.6929483 -2.0199225 -0.433537
0000d0 69 f5 0e be 60 87 83 be 83 f7 fd be b4 da 2b c0
       -0.13960804 -0.2568922 -0.496029 -2.6852236
0000e0 a8 ac 0c be ab 12 b8 3d b3 5c d2 3d c6 66 29 3f
       -0.13737738 0.08987936 0.10271587 0.66172445
0000f0 9c 34 4a bf 0f d2 ea bf a6 5f 6b be c4 59 54 be
       -0.78986526 -1.8345355 -0.22985706 -0.20737368

net.2.weight f4 [2, 64]
000000 69 00 61 3e 56 0e 74 3e 3a ca 60 3e cb 22 4a be
       0.21972813 0.23833594 0.21952143 -0.19739835
000010 48 2e aa 3d 56 4d 69 3e 13 a2 ab 3e ee e3 47 bd
       0.08309609 0.22783408 0.3352209 -0.048801355
000020 aa da c9 3e 21 f4 16 be 64 38 e4 bd d1 28 8b 3c
       0.3942464 -0.14741565 -0.11143568 0.016987236
000030 c0 5c ae 3e ef 0e da bc 32 d5 dd bd 6d 02 be 3c
       0.34055138 -0.026618449 -0.108316794 0.023194516
000040 a2 24 a2 3e fc a4 bd 3d f6 a0 7f 3e 16 e5 b9 bd
       0.31668574 0.09259984 0.24963745 -0.09076898
000050 05 07 4f 3c d6 ba 3b bb d6 a8 e4 3b db fc 2d bc
       0.012635951 -0.0028645298 0.0069781346 -0.0106193675
000060 24 62 0a be d7 07 4d bd 64 61 62 3e 78 04 96 3e
       -0.13514 -0.050056305 0.22107464 0.29300284
000070 fc 1c b8 3e 90 be 44 bf 07 48 a2 be c6 86 d2 bc
       0.35959613 -0.76853275 -0.31695578 -0.02569903
000080 8f 4b 82 bd c1 e4 03 3e cb 26 53 3e a4 2a 86 be
       -0.06362068 0.12880231 0.20620267 -0.26204407
000090 5a e4 73 be a1 32 13 bd 7a 19 40 bd 4f 32 64 be
       -0.23817578 -0.035936955 -0.046899296 -0.22284816
0000a0 cf 1c d5 3e 33 e5 7b be 1b 04 26 3e 40 90 b7 be
       0.41623542 -0.24599151 0.16212504 -0.35852242
0000b0 5c 7e c1 3d 45 f9 8d 3d 98 88 20 3d 52 68 94 3d
       0.09447929 0.0693231 0.039192766 0.0724646
0000c0 3f b7 a5 be 01 37 42 bc df 90 c8 3c db 02 17 3e
       -0.32366368 -0.011853934 0.024483142 0.14747183
0000d0 65 02 4f be 74 e7 d8 be cd a2 68 be 32 15 18 bc
       -0.20215757 -0.42364085 -0.22718354 -0.009282397
0000e0 cb 0c 49 be 36 fe 8c 3b 6f 3c a5 be fa b6 87 be
       -0.19633786 0.0043027652 -0.3227267 -0.26506788
0000f0 95 94 81 bc 40 85 77 3e 5a ee bf be d3 21 28 3e
       -0.01581792 0.24171925 -0.37486535 0.16419153
000100 82 59 a9 bb 2a f1 2c 3f 32 98 38 bc 51 2f 2a 3d
       -0.005168141 0.6755549 -0.011266755 0.04154903
000110 dc e1 16 3c cf d8 f0 bb 5b f7 bc bc 0c 6b f6 3e
       0.0092091225 -0.0073500643 -0.023067167 0.48128545
000120 2d 4e 03 bd fc 71 9f bc aa 57 88 3e 68 ab f8 3e
       -0.032056976 -0.019463532 0.26629382 0.48568273
000130 c9 2b 3f 3f 56 4f 4c bc db 8d b1 be 56 25 06 3f
       0.74676186 -0.012470087 -0.3467854 0.5240072
000140 38 9a 4c bc ef 0d b7 3e ae 05 24 3f 58 0a 53 bc
       -0.0124879405 0.35752818 0.64071167 -0.012880884
000150 72 b8 07 bd 70 45 c3 bc b8 dd f1 3e c9 72 03 3d
       -0.033134885 -0.023836821 0.4723947 0.03209189
000160 71 67 6d bc b3 9e cd 3e 9b 39 b3 3c 86 d5 31 bd
       -0.014489994 0.4016014 0.021878054 -0.043416522
000170 f6 61 79 bc 4f 80 38 be f8 a2 57 3c 8b 10 12 bf
       -0.01522111 -0.18017696 0.013161413 -0.5705649
000180 d0 01 11 bf bc ff ab bc d3 99 bf bb 2e 50 3b 3c
       -0.5664339 -0.020995967 -0.0058471947 0.011432691
000190 6f 9e 0e 3c fa 89 0e bf 94 c0 f8 be 05 6b 95 bc
       0.008704766 -0.55679286 -0.48584425 -0.018239507
0001a0 12 48 b1 bd 9c 8c 59 3d 12 8d 8d 3b f7 1c ed 3c
       -0.086563244 0.05311261 0.0043197954 0.028944476
0001b0 aa 1c 43 bd 1c 8c 0a 3e d5 1e a6 3c 10 ae 44 bd
       -0.047634758 0.1353001 0.020278374 -0.04801756
0001c0 1a 5a 5d 3c 61 a2 1a bf a3 65 00 3f da f5 cb bc
       0.013510251 -0.6040402 0.50155085 -0.024897505
0001d0 67 33 a4 3c 83 58 b6 3b d0 69 9f 3c 33 c1 ae bf
       0.020044042 0.0055647506 0.019459635 -1.365271
0001e0 82 49 30 3d 9e ca 0c bd 5a 2e ab 3c 54 64 9f 3d
       0.043038853 -0.03437292 0.020896126 0.07782808
0001f0 3b f2 49 3d 6b 93 99 be d9 84 69 bc 88 de 07 3d
       0.049303275 -0.29995283 -0.014252865 0.033171207

net.2.bias f4 [2]
000000 29 8f bb 3e 69 2d dc 3d
       0.3663266 0.10750849
