RLC_example/models/model_SS_simerr_noise.pkl (torch_old, 2386 bytes, 4 tensors)

net.0.weight f4 [64, 3]
-0.047740772 -0.2759318 0.0012623963 0.0047199293 -0.017190797 -0.037154853 0.02792135 -0.43969202
-0.036095012 -0.056432616 -0.3225577 -0.03902184 0.048947208 -0.16075478 -0.013023921 -0.25560415
0.6261833 0.0335448 -0.030891674 -0.21540536 -0.031566516 -0.0045892475 -0.20359384 0.003385327
-0.02459585 0.35871646 0.024142984 0.039031316 -0.18125291 0.04685631 0.09907384 -0.3211562
-0.011037025 0.11218974 0.114788875 -0.0190458 -0.118231565 0.17565967 -0.004183839 -0.05398156
-0.31833732 -0.0075715184 -0.022359114 -0.6803618 0.022815932 -0.017382292 -0.25735068 -0.0057180435
-0.020950103 -0.5912506 0.012657577 -0.022592701 -0.50163174 0.022330359 -0.012735249 -0.2578606
0.05472016 -0.061943226 -0.3243582 -0.036363725 0.09696965 -0.35151976 -0.011956766 0.049071617
-0.15656608 -0.013029069 0.04792405 -0.16932312 -0.013353117 0.06613304 0.42270684 -0.008088458
0.015385879 -0.31691077 -0.0145346755 0.024364755 0.6160248 -0.022436382 -0.15948214 -0.15854432
0.04515473 -0.09036247 0.24468489 -0.013737599 -0.05301218 -0.34858954 0.011449252 -0.029895242
-0.21468098 -0.031163398 0.0112387715 -0.23410913 -0.0105728265 -0.014281175 -0.21875587 -0.005051765
0.090385504 -0.26530582 -0.018979786 0.045810025 -0.32843187 -0.047988664 -0.047845803 0.06072539
-0.009754204 -0.034711998 0.39466724 0.018402228 0.10730559 0.039056048 0.0033302165 0.093867816
-0.32293707 -0.011414505 -0.053587068 -0.3250831 -0.0078421915 0.05684287 -0.48580584 0.048823494
-0.03406176 -0.24355642 -0.03578255 0.007468549 -0.11219354 -0.060378447 0.014712462 -0.30169675
-0.013951103 0.013187179 -0.27284038 -0.012254503 0.013885153 -0.36699635 -0.05976548 -0.06372103
-0.24381801 0.0025307597 0.030920813 -0.38610807 -0.04196706 0.0639523 -0.039993025 -0.015709944
0.0075511914 -0.12774146 -0.065716624 0.0702473 0.4444798 -0.008954198 0.01662576 0.33714944
0.22447436 0.00702538 -0.14509532 -0.03576477 0.110480696 -0.002002682 0.0039606392 0.07067613
0.41232774 -0.012400583 -0.056171797 -0.30779982 -0.02566593 -0.09919777 0.23636979 -0.043683086
0.09176996 -0.23170115 -0.012011626 0.064982735 0.40255758 -0.044199377 0.11421753 0.11648545
-0.019386953 0.007082471 -0.3093333 -0.0054052537 -0.087159015 0.23555337 -0.012902992 0.08463914
-0.30022478 -0.009902368 -0.08241336 0.1437475 0.0015960207 -0.10225817 -0.129858 0.05698874
00000000: d48b 43bd ef46 8dbe fe76 a53a a3a9 9a3b
00000010: b7d3 8cbc b02f 18bd 51bb e43c 501f e1be
00000020: 5dd8 13bd e325 67bd 4826 a5be 5dd5 1fbd
00000030: de7c 483d e79c 24be 4962 55bc 8cde 82be
00000040: 8c4d 203f 4666 093d 8910 fdbc 3993 5cbe
00000050: e44b 01bd 6661 96bb e77a 50be 5ddc 5d3b
00000060: 3c7d c9bc afa9 b73e 82c7 c53c 4ddf 1f3d
00000070: 5d9a 39be 67ec 3f3d 3ae7 ca3d 966e a4be
00000080: a3d4 34bc bcc3 e53d 6e16 eb3d f005 9cbc
00000090: 6423 f2bd 21e0 333e 9618 89bb c51b 5dbd
000000a0: 1cfd a2be 801a f8bb 762a b7bc 312c 2ebf
000000b0: 7ae8 ba3c 4f65 8ebc 78c3 83be 6d5e bbbb
000000c0: 8d9f abbc 335c 17bf ba61 4f3c 5414 b9bc
000000d0: f06a 00bf 28ee b63c 81a7 50bc 4e06 84be
000000e0: 3f22 603d 2eb8 7dbd 4712 a6be 21f2 14bd
000000f0: 0698 c63d 66fa b3be 50e6 43bc 52ff 483d
00000100: dc52 20be e077 55bc 024c 443d 0a63 2dbe
00000110: 08c7 5abc c270 873d 086d d83e 7485 04bc
00000120: 0e15 7c3c 2142 a2be d922 6ebc 9898 c73c
00000130: cdb3 1d3f 81cc b7bc 494f 23be 7159 22be
00000140: 2bf4 383d f50f b9bd ad8e 7a3e ab13 61bc
00000150: 4d23 59bd 547a b2be a595 3b3c dee6 f4bc
00000160: 55d5 5bbe 624a ffbc d322 383c 4eba 6fbe
00000170: a639 2dbc 97fb 69bc 8a01 60be 4789 a5bb
00000180: 091c b93d 2ad6 87be 7f7b 9bbc 4ba3 3b3d
00000190: 3928 a8be c38f 44bd f6f9 43bd 30bb 783d
000001a0: 19d0 1fbc 2b2e 0ebd d311 ca3e 45c0 963c
000001b0: 08c3 db3d 3cf9 1f3d c33f 5a3b c53d c03d
000001c0: 0258 a5be e703 3bbc 1d7e 5bbd 4b71 a6be
000001d0: 897c 00bc 12d4 683d 8bbb f8be 25fb 473d
000001e0: 5884 0bbd db66 79be b990 12bd bbba f43b
000001f0: bac5 e5bd 644f 77bd 8a0c 713c ff77 9abe
00000200: 2b93 64bc 0a0f 583c bcb1 8bbe 1cc7 48bc
00000210: 8e7e 633c f2e6 bbbe a6cc 74bd 2c80 82bd
00000220: 6eab 79be 1adb 253b a54d fd3c f5af c5be
00000230: a7e5 2bbd 6cf9 823d bacf 23bd 24b2 80bc
00000240: fc6f f73b a8ce 02be 7096 86bd d1dd 8f3d
00000250: db92 e33e a1b4 12bc bf32 883c da9e ac3e
00000260: 9bdc 653e 2935 e63b de93 14be 147e 12bd
00000270: b443 e23d 6e3f 03bb 40c8 813b a6be 903d
00000280: 9f1c d33e d12b 4bbc 6614 66bd f097 9dbe
00000290: 5b41 d2bc 3328 cbbd ec0a 723e 09ed 32bd
000002a0: e4f1 bb3d 1143 6dbe 69cc 44bc ab15 853d
000002b0: 071c ce3e 680a 35bd e1ea e93d ec8f ee3d
000002c0: 63d1 9ebc 1314 e83b ef60 9ebe 8e1e b1bb
000002d0: 6d80 b2bd e734 713e 1267 53bc 4957 ad3d
000002e0: 10b7 99be 8b3d 22bc 56c8 a8bd 8b32 133e
000002f0: 9131 d13a bb6c d1bd 7ff9 04be 066d 693d

net.0.bias f4 [64]
-0.24754135 -0.29543003 0.17653196 0.068307474 0.21325247 -0.24071604 0.26513007 0.42554596
-2.2770119 -0.28599912 0.12869205 0.022245396 0.02897174 -0.23910744 -3.5929258 0.1767574
-0.17879839 -3.0781405 -0.039000675 -0.036334902 0.17809604 0.15898156 0.21554223 0.4093666
-2.224614 -3.57468 -0.54276544 0.05464637 -0.2231282 0.26906487 -1.6366543 0.14581257
0.12950674 0.702796 -0.8175946 0.40957418 -0.07622154 0.14785892 -0.24331307 -0.2949063
0.2734046 -0.20700052 -2.1233056 -1.9679039 0.029371422 -0.1678889 -0.5634246 -0.12715337
-0.17225882 0.40343714 0.31597736 0.10675157 -0.12292769 0.28842324 -0.073894955 0.12720953
0.049042188 0.38947785 0.02681156 -0.15282731 0.048079856 0.14445117 0.55145484 0.12197109
00000000: 7b7b 7dbe 9b42 97be cbc4 343e cae4 8b3d
00000010: db5e 5a3e 447e 76be 21bf 873e 29e1 d93e
00000020: 90ba 11c0 7a6e 92be d9c7 033e fa3b b63c
00000030: 2456 ed3c 95d8 74be 7ff2 65c0 e4ff 343e
00000040: ed16 37be 4100 45c0 2cbf 1fbd e8d3 14bd
00000050: cf5e 363e 10cc 223e 1ab7 5c3e 8098 d13e
00000060: 1360 0ec0 8fc7 64c0 adf2 0abf dfd4 5f3d
00000070: b87b 64be dfc2 893e e37d d1bf e44f 153e
00000080: 6a9d 043e 70ea 333f e14d 51bf b5b3 d13e
00000090: 0a1a 9cbd 5468 173e 1027 79be f5fd 96be
000000a0: b0fb 8b3e f2f7 53be 3de4 07c0 46e4 fbbf
000000b0: 569c f03c 11eb 2bbe 983c 10bf 7e34 02be
000000c0: 9e64 30be 508f ce3e c9c7 a13e 91a0 da3d
000000d0: 83c1 fbbd 36ac 933e 3d56 97bd 3743 023e
000000e0: 76e0 483d a469 c73e eba3 db3c c37e 1cbe
000000f0: 62ef 443d 02eb 133e 252c 0d3f fbcb f93d

net.2.weight f4 [2, 64]
-0.20694944 -0.13047716 -0.00409947 -0.23394388 -0.1554168 0.28610522 -0.21988212 -0.14809926
0.15975767 -0.2661542 -0.193326 0.108579434 0.28917018 -0.22992335 0.034791313 -0.21727043
-0.36063516 -0.13534437 -0.16670132 -0.23067987 -0.20486718 -0.1409112 -0.15427075 0.49203408
-0.060466096 1.2402613 -0.31259248 0.2894293 -0.22963278 -0.17910706 0.34994596 -0.14929539
-0.22372141 -0.28457958 0.028948482 0.28713334 0.069410376 -0.20533095 -0.22763224 -0.38201436
-0.24520975 -0.04394243 0.1859037 -0.10877703 -0.009310082 -0.2682039 0.3666692 -0.081101224
-0.050264407 0.509487 0.24577327 -0.08922872 0.055671573 0.45841447 -0.22894713 0.32056308
-0.17664807 0.20845225 0.108351745 -0.25038785 0.28113568 -0.19255699 0.35052678 -0.30733675
0.026100498 -0.016010122 0.06725459 0.0071510575 0.0013064786 0.07475594 -0.020155026 -0.09197687
0.42080092 -0.04459805 0.017526736 -0.043975484 -0.016282244 0.03015294 0.847472 -0.04934038
0.053803477 0.6146493 -0.058918525 0.018781321 0.016133405 -0.0015668494 0.0013092535 0.014735848
-0.48726732 -0.7887148 0.0010555767 -0.011532204 0.019740578 -0.023705017 -0.42716062 -0.04628008
0.0050153933 0.033508822 -0.12326884 -0.080307215 -0.03964358 0.0128020765 0.02381947 0.047593806
-0.031401474 -0.046160538 -0.6345639 -0.3721782 0.051687226 -0.03432849 -0.05663854 -0.012771839
-0.049937256 0.023155637 0.05154205 -0.031372882 -0.04027277 -0.007870521 0.02429619 0.0024632984
0.008808838 -0.06254313 -0.043321114 -0.050601136 -0.011298397 0.013707119 -0.038933538 0.04207132
00000000: 8eea 53be ce9b 05be d954 86bb fc8e 6fbe
00000010: 9525 1fbe 627c 923e c728 61be 55a7 17be
00000020: 8497 233e 5d45 88be 40f7 45be e55e de3d
00000030: 1d0e 943e 0771 6bbe 5681 0e3d 247c 5ebe
00000040: 2ca5 b8be b797 0abe c0b3 2abe 5837 6cbe
00000050: b4c8 51be 074b 10be 27f9 1dbe e4eb fb3e
00000060: 4cab 77bd e2c0 9e3f 1f0c a0be 1430 943e
00000070: db24 6bbe d767 37be 1e2c b33e e4e0 18be
00000080: 3a17 65be 6ab4 91be 5e25 ed3c 2403 933e
00000090: 0727 8e3d 4742 52be 6d18 69be 6397 c3be
000000a0: 4418 7bbe fafc 33bd 8a5d 3e3e 7ec6 debd
000000b0: 5089 18bc 0652 89be 11bc bb3e 6618 a6bd
000000c0: 0de2 4dbd bd6d 023f fdab 7b3e 8cbd b6bd
000000d0: e007 643d 4db5 ea3e 1e71 6abe d820 a43e
000000e0: 3be3 34be 8274 553e 85e7 dd3d d632 80be
000000f0: 04f1 8f3e a92d 45be 3f78 b33e 3e5b 9dbe
00000100: b6d0 d53c a927 83bc c6bc 893d 6b53 ea3b
00000110: 263e ab3a a419 993d 271c a5bc 5f5e bcbd
00000120: 3873 d73e 72ac 36bd 3b94 8f3c a31f 34bd
00000130: 5762 85bc 4c03 f73c edf3 583f 2319 4abd
00000140: 0961 5c3d a859 1d3f 8d54 71bd 49db 993c
00000150: 342a 843c be5e cdba 429b ab3a a06e 713c
00000160: 1a7b f9be 37e9 49bf 475b 8a3a 92f1 3cbc
00000170: feb6 a13c 0631 c2bc ccb4 dabe 2e90 3dbd
00000180: 2b58 a43b 8c40 093d 6074 fcbd 1c78 a4bd
00000190: 4e61 22bd cdbf 513c 0d21 c33c b9f1 423d
000001a0: d59e 00bd d512 3dbd c872 22bf 248e bebe
000001b0: fcb5 533d 089c 0cbd d0fd 67bd fa40 51bc
000001c0: 028b 4cbd e4b0 bd3c c21d 533d da80 00bd
000001d0: 0ff5 24bd 5cf3 00bc ce08 c73c 4a6f 213b
000001e0: f252 103c 9d16 80bd 7b71 31bd 2343 4fbd
000001f0: e91c 39bc d393 603c c678 1fbd fa52 2c3d

net.2.bias f4 [2]
0.07026524 0.00379373
00000000: 39e7 8f3d 3aa0 783b
