RLC_example/models/model_SS_1step_nonoise.pkl (torch_old, 2380 bytes, 4 tensors)

net.0.weight f4 [64, 3]
00000000: 4103 f7bc e94f c3bd 35ac f23c 5b53 7d3d
00000010: 0dae 1abf ec45 bcbc ddbd 8bb9 f1a7 cabe
00000020: 0f26 dd39 0e52 c9bc cad8 a13e d54b c73c
00000030: 9eeb adbd 64bb 23bf 570d 9ebc aff8 943b
00000040: dc24 13bf ee97 8cbb 4947 a53d f321 223f
00000050: 5c5b dfbd 4283 82bd 4960 cdbd e4e5 7e3d
00000060: 1755 9bbd 9003 893f cacf 9b3d 7cdb 083c
00000070: 5120 6abe f22a 06bc ab7d cf3d d9b5 82bf
00000080: 13da 17bd 54cb 963d 4844 9e3e 5e9e 89bd
00000090: 74fb a63c 3f9a 963e 1542 23be a410 9b3b
000000a0: 3ea9 02bf 24ef a1bb b0ed c4b9 17b5 f0be
000000b0: 351b 2c3a 6332 42bd 0edc aebe 1feb 823d
000000c0: 4d53 51bc 56f7 8f3e 9643 553c 086e 3abc
000000d0: 996d 4abf e7f1 a1bd 98d4 d1bd db9d 843f
000000e0: 7fb8 193d 8f1b 883d fdcf 49be 8821 843d
000000f0: 4583 abbc 2d67 d63d 3716 af3c 705a 7739
00000100: 88b3 5cbf 13dc 0439 8a7e d53d b8a8 433f
00000110: 0220 4cbd 64aa a1bd 84fc 37bf 87ba cfbb
00000120: 4c16 d23b 7392 e8be f02c cabb 139d b1bc
00000130: 7d46 eebe 5367 a53d 1ba3 0abd a792 4cbf
00000140: 5d26 c73d 3ff4 a9bd c9e1 41bf ee47 c3bc
00000150: b433 b93c 5065 b23d 0c15 bfbc 82be a5bd
00000160: e8b0 25bf 35ca eb3c 5541 dc3d 76bc 7d3f
00000170: 75f8 7b3c 70d9 84bb 254d a1bf a4c7 12be
00000180: 56dd 9dba c090 03bf 41b0 7f3a 620c 94bd
00000190: a04c 91be 1b32 843d 754d a7bc 49e9 ccbe
000001a0: 59f3 9d3d dedd 18bc 98ee 083f e985 143c
000001b0: f634 0e3d 476d 63be 5266 10bd ef03 b63d
000001c0: 9ae4 e63c 397b 553d 4b46 b1bc ca01 e9be
000001d0: bcb6 a03d fcc4 833b ffa9 f9be 0273 61bb
000001e0: db07 c1bd 11e4 553f 9115 be3d 5667 a83c
000001f0: ff31 4d3d b14f a2bc 49c9 373c 354f 953f
00000200: 09b3 f73d fd11 0fbe 2fa9 213e 2ad1 d5bd
00000210: cc22 d1bd c144 bb3e 295c c93d dd33 013d
00000220: 8874 3c3f 7a4e babd 55e3 c53c 2915 183c
00000230: c5bb c5bc 644a 17bb 9e12 f73e 6dd7 0d3b
00000240: 05f8 0f3e 2138 923f acf8 1d3d 8f4b a0bd
00000250: c55c 21bf dd8b d83d 839b beba b1f1 ca3e
00000260: 2838 973a 7e9c 123c ed89 d3be 5808 0abc
00000270: addc ed3c f9e9 223f 88df e8bd d094 413d
00000280: d12a b3bd 3d0c 40bd 40c8 fabc 63b7 d0bd
00000290: 00a4 ef3c aa2c cf3d a595 b4bf 5f78 cfbd
000002a0: 4b5c ddbc 448a bcbe ad5e 423e 836d 663d
000002b0: 2697 b1be fc48 64bd fa5c c1bd 964e 2fbf
000002c0: 28e5 423d d71d 3fba 2f27 79be 0305 363d
000002d0: d55d 833d d33c 83be 126b 7bbd 52bf d03d
000002e0: 8399 64bf 7b51 cebd 9fcb 913b 3cfd 04bf
000002f0: 6102 95bb 6064 d53b ed29 2cbe acc5 dabb
-0.030152919 -0.09536726 0.02962313 0.061847072 -0.6042183 -0.02298256 -0.00026653605 -0.39581254
0.0004218076 -0.02457526 0.3161071 0.024328152 -0.08492206 -0.6395781 -0.01929347 0.004546247
-0.5747812 -0.0042905724 0.08070237 0.6333305 -0.10906097 -0.06372692 -0.100281306 0.06223096
-0.07584589 1.0704212 0.07607992 0.00835311 -0.2286389 -0.00818895 0.10131391 -1.0211746
-0.037073206 0.073630005 0.3091147 -0.06719659 0.020383574 0.29414555 -0.15943177 0.0047322083
-0.51039493 -0.004941838 -0.00037561124 -0.4701316 0.00065653335 -0.047411334 -0.34152263 0.06392502
-0.012776208 0.2811839 0.013016602 -0.011378773 -0.7907348 -0.07907467 -0.10245627 1.0360674
0.037529465 0.066458814 -0.19708247 0.06451708 -0.020936618 0.10468898 0.021372898 0.00023589446
-0.8621144 0.00012670485 0.10424526 0.7642932 -0.049835213 -0.078938276 -0.71869683 -0.0063393745
0.0064113494 -0.45424232 -0.0061699077 -0.021681344 -0.46538153 0.08076348 -0.033846956 -0.79911274
0.09724114 -0.08298539 -0.75735146 -0.02383801 0.022607662 0.0871073 -0.023325466 -0.08092977
-0.6472306 0.028782943 0.107546486 0.99115694 0.015379061 -0.004054241 -1.2601668 -0.1433397
-0.0012044113 -0.51392746 0.0009753742 -0.07228924 -0.28378773 0.06454869 -0.020422677 -0.40021732
0.077124305 -0.009330241 0.53489065 0.00906513 0.034718476 -0.22209655 -0.03525383 0.08887469
0.028185178 0.052119467 -0.021639964 -0.45509177 0.07847354 0.004021285 -0.4876251 -0.0034400825
-0.094253264 0.83551127 0.09281457 0.020557087 0.050096508 -0.01981339 0.011217424 1.1664797
0.12094695 -0.13971706 0.15787195 -0.104402855 -0.10211715 0.36575893 0.09832031 0.0315436
0.7361531 -0.090969995 0.024156252 0.009282389 -0.024137387 -0.0023085112 0.4825639 0.0021643296
0.14059456 1.1423379 0.03856723 -0.07826912 -0.6303218 0.10573552 -0.0014542196 0.3963752
0.0011537122 0.008948443 -0.41316167 -0.008424841 0.02903589 0.63638264 -0.1137076 0.04726106
-0.08748401 -0.04688667 -0.030613065 -0.10191228 0.029253006 0.10115941 -1.4108168 -0.10130381
-0.027021548 -0.36824238 0.18981428 0.056256782 -0.3468563 -0.055733666 -0.09441562 -0.6847929
0.04758182 -0.0007290518 -0.24331354 0.044438373 0.064143814 -0.25632343 -0.061381407 0.101927415
-0.8929674 -0.10074135 0.0044493224 -0.51948905 -0.0045474027 0.00651221 -0.16812868 -0.0066763964

net.0.bias f4 [64]
00000000: add2 983f 0b27 253e 2f5f 1840 54b8 cbbf
00000010: 62d2 49be bc6a 3340 5528 36be 4bf7 653f
00000020: 1c1b 87be 1975 dfbf f4b8 adbe 2661 e83e
00000030: b4eb 9bbe 8a7d 25c0 277a 1b40 6877 0b3e
00000040: 7500 12c0 bb7f f7bc 0484 253c 0878 9d3e
00000050: c6ac a7bf 7f94 8ac0 e3ce 013f 43a7 88be
00000060: 368c 22c0 d646 523e cab4 fb3e 92fe 12bf
00000070: 0d44 ba3f a20a 48bf 99f8 323f 615e 593e
00000080: 7fa0 1f40 cf53 a4be ae0a 953e 96b4 44c0
00000090: 0d0e 82bf ed43 663e a08d 8d3e 802c 17c0
000000a0: f1e9 3cbe b8cc 9fbf 1e70 60bd 8bff 81be
000000b0: b030 62bc bc93 e8be e653 7cbf 6022 3340
000000c0: 5f77 223f 5eb9 203e bc9b 3240 fc7c 27c0
000000d0: b5c2 d6be 4d42 73bf ef64 f33f 5f37 d63e
000000e0: d437 023f 4ad2 dcbe 1ea0 aabe 8ede 403c
000000f0: cb3a fc3d 5948 973e e4b6 27c0 26bf c7bf
1.1939293 0.16128175 2.3808095 -1.5915627 -0.19709161 2.8033895 -0.17788823 0.89830464
-0.2638787 -1.745761 -0.3393017 0.45386618 -0.30453265 -2.5857873 2.4293306 0.13619769
-2.281278 -0.030212274 0.010102276 0.3075564 -1.3099601 -4.330627 0.5070631 -0.2669011
-2.5398078 0.20534834 0.4916137 -0.57419693 1.4552017 -0.78141224 0.6991058 0.21227409
2.494171 -0.3209519 0.2910971 -3.073522 -1.0160538 0.22486849 0.27647114 -2.362091
-0.18448617 -1.248435 -0.054794423 -0.25390276 -0.013805553 -0.45425212 -0.9856552 2.798973
0.63463396 0.15695712 2.7907553 -2.6170034 -0.41945425 -0.9502304 1.9015177 0.4183912
0.50866437 -0.43129188 -0.33325285 0.011771811 0.12315901 0.29547384 -2.6205378 -1.5605209

net.2.weight f4 [2, 64]
00000000: d578 8c3e 5571 ac3d 9247 49c0 188b 43be
00000010: 287d 6fbd 0828 0a40 3e24 3ebf 89d7 eb3d
00000020: 037a 38bf ece0 1ebf 9218 443d 59d4 3bbe
00000030: e870 1ebe ee45 98bf ecd5 21c0 5503 a93e
00000040: 7430 c33f 7bfe 5f3d feff cabd e1c1 adbd
00000050: ff01 963e 7efb 4240 92a1 7dbd 04ca 22bd
00000060: ae3c 13c0 e6c1 bbbc bd3d 2a3d 8f21 d03d
00000070: c68e a0be 14cf af3d 384f 23bd dd34 b23d
00000080: befd 01c0 1fdd 353e debf fa3c eaf8 4140
00000090: e638 653e 4e85 03be cfec 593c d995 efbe
000000a0: 5837 e6be 2052 17bf 6878 14be d36d e33d
000000b0: 58c4 29be acc1 4dbd b682 c9be 1580 f23f
000000c0: 5eb0 ea3c 8287 103f fd65 1440 7842 28c0
000000d0: 32df 6fbc 5d54 86be 14b1 fc3e 79cc 0c3f
000000e0: 4a8f 023e 454d 143e 1d69 6b3c 5933 033d
000000f0: fa6f 3a3e c250 c43e 4f7f cbbf e580 f1bf
00000100: 3ec0 cf3e 8616 6e3e 615d 29c0 3c9b 3cbe
00000110: 28a7 8a3d b491 4140 8f4d 1ebf 4fa0 273e
00000120: 00b8 68bf db4b bfbf 9ccc 033e ee80 37be
00000130: 1649 2fbe d494 d7bf 8b51 58c0 e617 8a3e
00000140: be77 c23f 8e7b 303e fcba 85be 1143 80bd
00000150: 7292 df3e aafc 6f40 8b94 7fbe b52c 8f3d
00000160: 959a d8bf eed8 fb3d c422 913e 2fe2 993e
00000170: d94f a5be 0628 0d3e 993d 3fbe 7d87 893d
00000180: f3e8 11c0 49d7 303e bfab f13d 952c 2640
00000190: 5d10 c33e 2e10 10bd c520 f63d 8c98 c2bf
000001a0: 6c38 23bf bb3e 8abf 373b 4dbe 4f31 493d
000001b0: 13ad 9dbe b90f a0be 1216 10bf 83d6 e53f
000001c0: 8219 06be 7422 f43e ccdd e73f a2b4 edbf
000001d0: b0ea 89be 7acf e5be 2036 363f d230 2e3f
000001e0: 8a9a 193e ede8 9a3e 4ce4 3e3e f2f2 8c3d
000001f0: fe5f a33e bc7d 093f c67b debf 21cd 96bf
0.27435938 0.08420054 -3.1449933 -0.19096029 -0.058468968 2.1586933 -0.7427405 0.115157194
-0.72061175 -0.62061954 0.047874995 -0.18342723 -0.15472758 -1.1896341 -2.5286818 0.33010355
1.5249162 0.05468605 -0.09912108 -0.08484245 0.29298398 3.0465999 -0.061921664 -0.03974344
-2.3005786 -0.022919606 0.041562784 0.10162651 -0.31358927 0.08584419 -0.03987047 0.08701489
-2.0311122 0.17760132 0.030609068 3.0308175 0.22384986 -0.1284382 0.0133010885 -0.46794012
-0.449641 -0.5910969 -0.14499056 0.11104932 -0.16578805 -0.050233528 -0.39357537 1.8945338
0.028648552 0.5645677 2.3187249 -2.629057 -0.014640616 -0.2623624 0.4935385 0.549995
0.12749973 0.14482601 0.014368323 0.03203139 0.18206778 0.38342863 -1.5898226 -1.886746
0.40576357 0.2325078 -2.6463244 -0.18418592 0.06770164 3.024518 -0.61837095 0.16369747
-0.9090576 -1.4945024 0.12871021 -0.17920277 -0.17117724 -1.6842294 -3.379977 0.26971358
1.5192792 0.17234632 -0.2611922 -0.06262792 0.43666416 3.7497964 -0.24959008 0.06990949
-1.6922175 0.122972354 0.28346837 0.30055377 -0.3228748 0.13784799 -0.18675841 0.067152955
-2.279843 0.17269625 0.11800336 2.596471 0.38098422 -0.03517168 0.12017969 -1.5202804
-0.6375797 -1.0800394 -0.2004212 0.04911929 -0.30796108 -0.31261995 -0.56283677 1.7956089
-0.13095668 0.47682536 1.8114562 -1.857075 -0.26936865 -0.44884855 0.7117634 0.68043244
0.15000358 0.30255833 0.18641776 0.06882276 0.31909174 0.5370748 -1.7381523 -1.178135

net.2.bias f4 [2]
00000000: 9912 c6be a5f4 75be
-0.38686064 -0.24019106
