RLC_example/models/model_IO_1step_nonoise.pkl (torch_old, 2377 bytes, 3 tensors)

net.0.weight f4 [64, 4]
-0.17092054 -0.025364581 -0.0030542302 0.09178762 -0.09224231 0.087855 -0.0063583 0.011001513
0.08139144 -0.11634366 -0.02068797 0.030481122 -0.1096605 0.09731779 -0.020663192 0.033354633
0.11247651 -0.107108146 0.003647214 -0.0090664225 -0.09072912 0.087275155 0.00012161799 0.0033096275
0.08612602 -0.096456215 0.014598487 -0.0039316094 -0.10544961 0.094325185 -0.011948321 0.021378463
-0.107538335 0.10348652 0.0041198866 -0.00031672005 -0.20875017 0.16668129 -0.01687665 -0.038610473
0.11781917 -0.11261165 -0.0024732726 -0.0021601154 -0.10950222 0.10109859 0.031101491 -0.022127025
0.07559317 -0.08722148 0.0037785033 0.0076915575 -0.11060154 0.09915523 -0.013759811 0.023583572
-0.11634214 0.10413159 0.0020461455 0.008327376 0.11974669 -0.11405451 0.0026813925 -0.008451062
0.17408511 0.02528697 -0.00998997 -0.065196246 0.11312125 -0.10779132 0.0059 -0.0105719725
-0.095257424 0.09099106 -0.0041227913 0.008334793 -0.1354296 0.09603939 0.009698355 0.029792259
-0.09871813 0.08813466 -0.008622748 0.019552069 -0.10575239 0.094124645 -0.020745754 0.031230751
0.044001922 -0.057416316 0.004138507 0.008760315 0.08651078 -0.09373452 0.0060172025 0.0013427008
0.12840688 -0.11649457 0.019632084 -0.031536 0.11634489 -0.11079582 0.0032292171 -0.008841299
-0.10056593 0.09251926 0.028836684 -0.020986047 -0.031706225 0.04703561 -0.18507607 -0.1634814
-0.08876369 0.084869735 -0.0035952777 0.007430262 -0.09102272 0.08734611 -0.0021806795 0.005805609
-0.12677833 0.113824405 -0.0046598474 0.015645877 -0.10313567 0.092036076 -0.010108971 0.02156585
0.11890273 -0.113640875 -0.0023433382 -0.0023343442 0.12300506 -0.11674377 0.010232287 -0.016291281
-0.068596125 0.05703869 0.18800919 0.2301988 -0.09724076 0.086832836 -0.00768856 0.018437386
0.1976501 0.023032933 -0.017569955 -0.06569534 -0.06056784 0.07377045 0.021104202 -0.03391646
-0.056350246 0.06652769 -0.02865164 0.018579582 0.11766932 -0.1131474 -0.01659923 0.012374816
0.10856257 -0.2202967 -0.03432181 0.014106169 -0.11580579 0.10396808 0.0015147645 0.010632897
-0.05738781 0.21988183 0.05900812 -0.031055741 0.11482927 -0.11047097 -0.01903066 0.015266762
-0.09538719 0.09066853 -0.00803167 0.012988215 -0.107623324 0.10379241 0.009902206 -0.0063779578
-0.0878339 0.08458931 0.0008790219 0.0023473036 0.12878568 -0.120748796 -0.026507495 0.016835978
-0.0011405896 0.018873435 -0.044084676 0.026131915 0.083879784 -0.09054255 0.0027638688 0.0037483452
-0.0991741 0.095518716 0.0011195273 0.002510462 -0.09570496 0.09220155 0.007462953 -0.004259503
0.1223513 -0.11687383 -0.0015662027 -0.0033570223 0.21346064 -0.11622687 0.06990553 -0.007487056
0.11486921 -0.11054623 -0.022249088 0.01848315 -0.022264617 0.04725 -0.024331052 -0.0006082142
-0.16563597 -0.03598185 -0.04282683 0.1046229 0.14862412 -0.13762312 0.012494021 -0.025408732
0.11198073 -0.107187726 -0.005144382 0.000861393 0.112186044 -0.1068681 0.0014863935 -0.006897762
-0.07101522 0.08215404 -0.0065713543 -0.0048874766 0.15694988 -0.14347303 0.031030413 -0.046452846
-0.096521325 0.088466726 0.022764293 -0.013999507 0.19861415 -0.21491995 0.00065465446 0.016233616
00000000: cb05 2fbe 62c9 cfbc 7b29 48bb 26fb bb3d
00000010: 89e9 bcbd 52ed b33d 4959 d0bb b13f 343c
00000020: 8eb0 a63d 9645 eebd d179 a9bc 8cb3 f93c
00000030: af95 e0bd 8d4e c73d db45 a9bc de9e 083d
00000040: 165a e63d 845b dbbd 1906 6f3b 558b 14bc
00000050: 30d0 b9bd 51bd b23d 290d ff38 56e6 583b
00000060: d762 b03d d68a c5bd 7e2e 6f3c bbd4 80bb
00000070: f7f5 d7bd 902d c13d e4c2 43bc e321 af3c
00000080: 0f3d dcbd bef0 d33d 1d00 873b 720d a6b9
00000090: 9bc2 55be 80ae 2a3e e640 8abc 0426 1ebd
000000a0: 2d4b f13d f0a0 e6bd a116 22bb b990 0dbb
000000b0: b342 e0bd c70c cf3d 8ec8 fe3c bc43 b5bc
000000c0: 98d0 9a3d 2da1 b2bd c4a0 773b 7609 fc3b
000000d0: 0f83 e2bd e611 cb3d d570 61bc 5632 c13c
000000e0: ca44 eebd f142 d53d a018 063b 8c6f 083c
000000f0: c13d f53d 6995 e9bd 4dba 2f3b 5376 0abc
00000100: 5e43 323e 9f26 cf3c f9ac 23bc 9c85 85bd
00000110: 1dac e73d b2c1 dcbd ca54 c13b 1136 2dbc
00000120: 5316 c3bd 8559 ba3d 7b18 87bb a88e 083c
00000130: 0fae 0abe 4db0 c43d d9e5 1e3c e50e f43c
00000140: bb2c cabd f27f b43d 6d46 0dbc a92b a03c
00000150: b694 d8bd 6cc4 c03d 00f3 a9bc a2d7 ff3c
00000160: 5c3b 343d 5f2d 6bbd 509c 873b 6d87 0f3c
00000170: 902c b13d e2f7 bfbd f42b c53b 90fd af3a
00000180: 187d 033e b594 eebd 77d3 a03c e52b 01bd
00000190: 3b46 ee3d ebe8 e2bd 46a1 533b 19db 10bc
000001a0: 83f5 cdbd bd7a bd3d e93a ec3c eeea abbc
000001b0: 63de 01bd 69a8 403d 9584 3dbe ab67 27be
000001c0: bdc9 b5bd 2fd0 ad3d c09e 6bbb 8e79 f33b
000001d0: 1f6a babd 84e2 b23d bbe9 0ebb fa3c be3b
000001e0: 2ed2 01be c51c e93d a2b1 98bb c82b 803c
000001f0: cb38 d3bd 697d bc3d 19a0 25bc deaa b03c
00000200: 4683 f33d 8cbc e8bd b192 19bb ccfb 18bb
00000210: 14ea fb3d 5c17 efbd 53a5 273c 4b75 85bc
00000220: 207c 8cbd 67a1 693d 7b85 403e 3cb9 6b3e
00000230: 2a26 c7bd 6ad5 b13d 51f0 fbbb 000a 973c
00000240: ca64 4a3e 90af bc3c deee 8fbc 478b 86bd
00000250: fc15 78bd f614 973d b8e2 ac3c fceb 0abd
00000260: 84cf 66bd ab3f 883d d8b6 eabc 3534 983c
00000270: 9dfc f03d d3b9 e7bd 1cfb 87bc bebf 4a3c
00000280: 0d56 de3d 7595 61be 0795 0cbd 901d 673c
00000290: 962b edbd 37ed d43d 108b c63a 9a35 2e3c
000002a0: 7b0f 6bbd b428 613e 80b2 713d 9c68 febc
000002b0: 9c2b eb3d 9b3e e2bd 30e6 9bbc 7121 7a3c
000002c0: 5c5a c3bd 6cb0 b93d 4497 03bc 86cc 543c
000002d0: 9e69 dcbd 1d91 d43d dd3c 223c 30fe d0bb
000002e0: 42e2 b3bd 293d ad3d 296e 663a 38d5 193b
000002f0: 65e0 033e 254b f7bd 3f26 d9bc 9beb 893c
00000300: d67f 95ba 769c 9a3c 2292 34bd 9912 d63c
00000310: 2ac9 ab3d 5f6e b9bd 0622 353b cca6 753b
00000320: ca1b cbbd 519f c33d 1abd 923a 9086 243b
00000330: f600 c4bd 2bd4 bc3d ca8b f43b 4d93 8bbb
00000340: 5293 fa3d 8c5b efbd 0b49 cdba 7d01 5cbb
00000350: 6d95 5a3e 5a08 eebd a12a 8f3d fa55 f5bb
00000360: 8c40 eb3d 1066 e2bd b843 b6bc fa69 973c
00000370: 4964 b6bc 3789 413d ea51 c7bc 9070 1fba
00000380: 7a9c 29be b461 13bd 306b 2fbd 8844 d63d
00000390: ec30 183e 13ed 0cbe b9b3 4c3c f925 d0bc
000003a0: 2756 e53d 3d85 dbbd 3492 a8bb 1bcf 613a
000003b0: ccc1 e53d aadd dabd 17d3 c23a 9f06 e2bb
000003c0: 6d70 91bd 6140 a83d 8454 d7bb 2027 a0bb
000003d0: 78b7 203e 98ea 12be 7e33 fe3c 5745 3ebd
000003e0: f9ac c5bd 0b2e b53d 2f7c ba3c 305e 65bc
000003f0: 8261 4b3e fa13 5cbe 1e9d 2b3a 5cfc 843c

net.0.bias f4 [64]
0.07176847 0.95276314 -1.2791252 1.0190971 1.112338 0.9192113 -1.3849843 0.62263393
1.1278863 0.120354675 1.2096028 0.8944033 -1.4610286 0.6402506 0.8186318 1.1815013
0.053408366 1.161347 0.9779689 2.9861004 0.9256807 0.6089121 -1.629664 -1.0982099
0.7715876 1.1488692 0.7652468 0.3793552 0.9118809 0.92950124 0.7914498 0.9636845
1.2200459 1.2338204 0.27009085 0.91643006 0.037950568 -1.3458498 -1.3505634 1.2221861
-0.5384011 1.1065227 0.9253327 1.2294643 0.9820421 1.1548935 0.8961589 1.0923295
-2.1598835 -1.0155519 1.012095 1.0233363 1.2518092 0.29189733 1.2351859 -1.5033892
0.37340385 1.0651249 1.1582297 1.1058928 -1.3731595 1.0393544 0.8763665 2.6381752
00000000: 59fb 923d 49e8 733f 60ba a3bf c671 823f
00000010: 1761 8e3f 6f51 6b3f 2a47 b1bf f064 1f3f
00000020: 945e 903f 837c f63d 44d4 9a3f 9df7 643f
00000030: fc02 bbbf 77e7 233f db91 513f 6f3b 973f
00000040: bbc2 5a3d 05a7 943f 2b5c 7a3f 451c 3f40
00000050: 69f9 6c3f aae1 1b3f d498 d0bf 2492 8cbf
00000060: c486 453f 250e 933f 37e7 433f d83a c23e
00000070: 0771 693f cbf3 6d3f 749c 4a3f 07b4 763f
00000080: 772a 9c3f d4ed 9d3f 5949 8a3e 299b 6a3f
00000090: 0e72 1b3d ce44 acbf 43df acbf 9870 9c3f
000000a0: a8d4 09bf 89a2 8d3f 9be2 6c3f 165f 9d3f
000000b0: 1c67 7b3f 8dd3 933f ab6a 653f 74d1 8b3f
000000c0: 883b 0ac0 9bfd 81bf 548c 813f affc 823f
000000d0: 493b a03f 9173 953e 921a 9e3f 0f6f c0bf
000000e0: ca2e bf3e 0356 883f df40 943f e58d 8d3f
000000f0: b1c3 afbf 9109 853f 8e59 603f ddd7 2840

net.2.weight f4 [1, 64]
0.15183693 -0.65971124 0.024443345 -0.07429762 0.5551432 -0.79767746 1.6810608 -0.18020833
-0.6407067 0.34102887 0.53217936 -0.23098877 1.7429578 -0.127471 -0.16967727 0.54716945
-0.112673976 0.54170835 -0.7304977 2.1780753 -0.11644769 -0.21012488 1.2634597 1.8284031
0.2729953 0.53965515 -0.31462234 -0.14794229 -0.7443188 -0.7363999 -0.059962668 -0.0810842
0.5186969 0.44381186 0.11223567 -0.15423739 -0.17040734 -0.85129875 -0.32150277 0.46781218
-0.17545316 -0.09775486 0.16348112 0.46560204 -0.5996318 -0.6025324 -0.7806187 0.34129313
-2.2419355 1.8707352 -0.7355391 -0.6733266 0.5095783 -0.24930865 0.4482348 -0.9849541
0.16753682 0.13290083 0.58657515 0.5871346 -0.6877646 0.050736304 -0.27419597 -2.2240844
00000000: 247b 1b3e d6e2 28bf 693d c83c 5a29 98bd
00000010: dd1d 0e3f 9734 4cbf 002d d73f 8888 38be
00000020: 5b05 24bf 569b ae3e e83c 083f 5288 6cbe
00000030: 3e19 df3f c287 02be e1bf 2dbe 4c13 0c3f
00000040: 9dc1 e6bd 66ad 0a3f e601 3bbf 9665 0b40
00000050: 207c eebd fa2a 57be 0cb9 a13f 1d09 ea3f
00000060: 0ac6 8b3e d726 0a3f 2e16 a1be 2f7e 17be
00000070: ad8b 3ebf b484 3cbf 6a9b 75bd 790f a6bd
00000080: 52c9 043f 4f3b e33e d1db e53d 68f0 1dbe
00000090: 437f 2ebe b7ee 59bf 039c a4be 1485 ef3e
000000a0: fea9 33be b333 c8bd 9867 273e 6463 ee3e
000000b0: 7881 19bf 903f 1abf a1d6 47bf f9bd ae3e
000000c0: df7b 0fc0 4074 ef3f 4a4c 3cbf 225f 2cbf
000000d0: b973 023f c44a 7fbe 087f e53e f425 7cbf
000000e0: c68e 2b3e 2817 083e ca29 163f 744e 163f
000000f0: 5711 30bf dfd0 4f3d 6a63 8cbe 6657 0ec0
