RLC_example/models/model_ARX_FE_sat_nonoise.pkl (torch_old, 2380 bytes, 4 tensors)

net.0.weight f4 [64, 3]
0	0xbb273940	-0.0025516301
1	0xbe461e1f	-0.19347428
2	0x3b2e2d3d	0.0026577257
3	0xbc32fbdc	-0.010924306
4	0x3f2529ff	0.64517206
5	0xbd07b668	-0.03313294
6	0x3a7d8b49	0.0009671939
7	0xbe97cb9b	-0.29647526
8	0xba75aa74	-0.0009371408
9	0xbafc2dd7	-0.0019239736
10	0x3e728dea	0.23686948
11	0x3aea7a0f	0.001788916
12	0x3ae51e60	0.0017480366
13	0x3e217595	0.1576751
14	0xbaefaec5	-0.0018286338
15	0xbbf26042	-0.0073967287
16	0x3e9b7d2c	0.30368936
17	0x3d85ad0c	0.06527147
18	0x3c260a05	0.010134225
19	0x3cc000fe	0.023437973
20	0xbc2718c1	-0.010198773
21	0x3c0c4464	0.0085612275
22	0x3d248d1a	0.040173627
23	0xbc0caa68	-0.00858555
24	0x3b83c2c3	0.00402102
25	0xbddb4596	-0.10706632
26	0xbb82a6f3	-0.003987187
27	0x3b32ed6d	0.0027302161
28	0x3e02b9c1	0.12766172
29	0xbb2f6a96	-0.002676641
30	0x3c26c208	0.010178097
31	0x3dc7b312	0.09750952
32	0xbc27bb68	-0.010237552
33	0xbb248733	-0.0025105
34	0xbe48dbf3	-0.19615154
35	0x3b2a035c	0.0025941944
36	0xbacf321a	-0.0015807778
37	0x3e7c75b2	0.24654272
38	0x3ac404c6	0.0014955036
39	0x3b152d48	0.0022762585
40	0x3e21d7bb	0.15804951
41	0xbb179362	-0.0023128618
42	0x3c73051b	0.01483276
43	0xbc7285a1	-0.014802367
44	0xbc748fcb	-0.014926861
45	0x3b43ab89	0.0029856882
46	0x3e7cf434	0.24702531
47	0xbb44a1a8	-0.0030003581
48	0xbccc7a34	-0.024960615
49	0xbedfc804	-0.43707287
50	0x3cdd6210	0.027024299
51	0x3abe4200	0.0014515519
52	0x3e277a8f	0.16355346
53	0xbabffd4c	-0.0014647632
54	0x3d003b48	0.031306535
55	0x3f0a9dc2	0.5414697
56	0xbd0aa657	-0.03385004
57	0xbc64e209	-0.013969907
58	0x3c4c3771	0.01246439
59	0x3c66707f	0.014064907
60	0x3ae0fc00	0.0017164946
61	0x3e23e9d4	0.16007167
62	0xbadfa9c6	-0.0017064146
63	0xbae13075	-0.0017180579
64	0xbe4c8b81	-0.19975092
65	0x3add5222	0.0016885439
66	0xbba2dd53	-0.0049702316
67	0x3e70190d	0.23447056
68	0x3d49e431	0.049289886
69	0x3d8aad26	0.06771307
70	0xbf00033a	-0.50004923
71	0x3c7537ca	0.014966914
72	0xbaebb86a	-0.0017984037
73	0x3e3dff78	0.18554485
74	0x3ae7774d	0.0017659456
75	0x3c37f3d0	0.011227563
76	0xbf25e2d7	-0.64799255
77	0x3d07fdef	0.033201154
78	0x3abff87e	0.00146462
79	0x3e277e32	0.16356733
80	0xbac1f29d	-0.0014797036
81	0x3b8e820b	0.0043489984
82	0x3dc4b46e	0.09604727
83	0xbb91fa85	-0.004454913
84	0xbacf99c0	-0.0015838668
85	0x3e431881	0.19052316
86	0x3ad8a87b	0.0016529703
87	0x3bddc319	0.006767642
88	0x3cae8e52	0.021308098
89	0xbbf31021	-0.007417694
90	0x3b1e7392	0.0024177772
91	0x3e74eb68	0.23917925
92	0xbb1b2064	-0.002367043
93	0xbc7788ee	-0.01510833
94	0xbe4a30d4	-0.19745189
95	0x3c7505aa	0.014954964
96	0xbad0394a	-0.0015886214
97	0x3e430b20	0.19047213
98	0x3ad89259	0.0016523107
99	0x3af02ed9	0.0018324509
100	0x3e1ddd5f	0.15416478
101	0xbafb5505	-0.0019175118
102	0x3ae41e6b	0.0017404085
103	0x3e262f3a	0.16228953
104	0xbae2b9f1	-0.0017297846
105	0xbb3682cb	-0.0027848955
106	0xbe76a4e1	-0.24086334
107	0x3b37f162	0.002806746
108	0xbb0d3352	-0.0021545482
109	0x3e42007e	0.189455
110	0x3b10c131	0.0022087807
111	0x3cb1f586	0.02172352
112	0xbe83f32e	-0.2577147
113	0xbcb3f6f4	-0.021968342
114	0xbb0f9ed9	-0.002191475
115	0x3e6a7b9f	0.2289872
116	0x3b1801d4	0.002319445
117	0x3c7262a8	0.014794029
118	0xbf21c921	-0.63197523
119	0xbe0bbec4	-0.1364699
120	0xbd29285d	-0.04129826
121	0x3e50ab83	0.20377927
122	0x3d1f8540	0.038945436
123	0x3b29b7a5	0.0025896814
124	0xbe18f7ed	-0.14938326
125	0xbb2bca73	-0.0026213198
126	0xbb9008fd	-0.0043956027
127	0xbe23aaba	-0.15983096
128	0x3b90557b	0.0044047213
129	0xbb365d83	-0.0027826733
130	0xbe3a9547	-0.18221007
131	0x3b2e6e76	0.0026616133
132	0x3b9195c8	0.004442904
133	0xbe38298a	-0.17984596
134	0xbb8faf6f	-0.004384927
135	0xbd9781c1	-0.073977955
136	0x3f0b2354	0.5435078
137	0xbc88b879	-0.016689526
138	0x3b1ab668	0.0023607258
139	0x3e1008ca	0.14065853
140	0xbb0b86a1	-0.0021289962
141	0xbbbccf9c	-0.0057620537
142	0xbb695b5a	-0.0035607428
143	0x3bb39a68	0.005481053
144	0xbbfcd3df	-0.0077156867
145	0x3ea63b49	0.32467106
146	0x3d900350	0.07031882
147	0x3cafa6fb	0.021441927
148	0x3d3b06c7	0.04566076
149	0xbcb09395	-0.021554748
150	0x3ce9c46d	0.028536046
151	0x3d3bd9f3	0.04586215
152	0xbce8dae8	-0.028424695
153	0xbc33a96a	-0.010965684
154	0xbe2e443f	-0.17018221
155	0x3c31a785	0.010843162
156	0x3b1de88b	0.0024094905
157	0x3e7552a7	0.2395731
158	0xbb1a6ca0	-0.002356328
159	0x3ae15a2b	0.001719301
160	0x3e2432f3	0.1603506
161	0xbadff5d6	-0.0017086815
162	0x3d5d62c8	0.054049283
163	0xbe8492d3	-0.25893268
164	0xbd511ca2	-0.051052697
165	0x3ac89f2e	0.0015306228
166	0x3e291287	0.16510974
167	0xbaccb8b9	-0.0015619016
168	0x3d232177	0.039826836
169	0xbe5f6048	-0.21814072
170	0xbd18a549	-0.037267003
171	0xbbc6303e	-0.0060482314
172	0xbc6480d4	-0.013946731
173	0x3bbefdd1	0.005828597
174	0x3ac8c3b5	0.0015317114
175	0x3e29288a	0.1651937
176	0xbaccdb39	-0.0015629298
177	0x3abae1d3	0.0014257975
178	0x3e28700c	0.16448992
179	0xbabd41fa	-0.0014439218
180	0xbbc10e68	-0.00589161
181	0xbb7442d1	-0.003727127
182	0x3bb94e13	0.005655059
183	0xbb026fd6	-0.0019903085
184	0x3e3368d4	0.17520458
185	0x3b01334d	0.0019714416
186	0xbaf3ec6c	-0.0018609888
187	0x3e82b4dc	0.2552861
188	0x3af58305	0.0018731063
189	0x3b11cda6	0.002224782
190	0xbe235201	-0.15949251
191	0xbb13f891	-0.0022578577

net.0.bias f4 [64]
0	0xbf836b41	-1.0267106
1	0x3de00109	0.109376974
2	0xbfbcaf5a	-1.4741013
3	0xbfa8496e	-1.3147409
4	0xbf5bff13	-0.8593609
5	0x3d029e45	0.03188922
6	0x3f092670	0.53574276
7	0x3f476957	0.7789511
8	0x3f7b643e	0.9819983
9	0xbf518c4f	-0.8185472
10	0x3f635a21	0.888094
11	0xbf84f2dc	-1.0386615
12	0xbfa6dfc7	-1.3037041
13	0xbf6627a9	-0.89904267
14	0x3f3d6484	0.739815
15	0x3f976a8c	1.182939
16	0x3e7b8d86	0.24565706
17	0xbf564506	-0.8369907
18	0xbe86a582	-0.26298147
19	0xbf32593f	-0.6966743
20	0xbf56f4d3	-0.8396732
21	0xbf7fbe2f	-0.9989957
22	0x3e0a32c3	0.13495927
23	0x3c436a84	0.011927251
24	0x3f87eae1	1.0618554
25	0xbde25b7e	-0.11052607
26	0xbf5661f0	-0.8374319
27	0xbf42f60c	-0.7615669
28	0x3f867c50	1.0506687
29	0x3f5e0172	0.86720955
30	0x3f9b096b	1.2112249
31	0x3f296fc9	0.66186196
32	0x3f8687a2	1.0510142
33	0xbf58f62c	-0.8475063
34	0xbf59ee22	-0.85128987
35	0x3f9575a2	1.1676524
36	0x3f83038d	1.0235459
37	0x3e9fbb7c	0.31197727
38	0xbfa7e662	-1.3117182
39	0xbdc767d7	-0.09736603
40	0x3e692ca3	0.22770934
41	0x3f80770b	1.0036329
42	0xbf8a0e5d	-1.0785633
43	0xbf8495ca	-1.0358212
44	0xbfad209f	-1.352558
45	0xbc229a13	-0.0099244295
46	0xbf5c91d3	-0.8616001
47	0x3f3912aa	0.72294104
48	0xbc718f4f	-0.01474364
49	0x3ed85fda	0.4226063
50	0xbe755cda	-0.23961201
51	0x3efb9942	0.49140364
52	0x3f9bcfa0	1.2172737
53	0xbf5754e1	-0.8411389
54	0xbed6dbe3	-0.41964635
55	0xbf55201e	-0.8325213
56	0xbe204a2f	-0.15653299
57	0x3f2bf8e6	0.67176664
58	0xbf553abc	-0.83292747
59	0xbf56c9d9	-0.83901745
60	0x3f36f56b	0.7146823
61	0x3f8326d0	1.024622
62	0xbfa74bb5	-1.3069979
63	0x3f80fed8	1.0077772

net.2.weight f4 [2, 64]
0	0xbe268d1d	-0.16264768
1	0x3e4e66c9	0.20156397
2	0xbec1e11f	-0.37867066
3	0x3dc5065d	0.09620354
4	0x3ce244dc	0.027620725
5	0x3de0b702	0.10972406
6	0xbd9cfa48	-0.07664925
7	0xbdb95c75	-0.09050838
8	0xbc8ba822	-0.017047945
9	0xbb917192	-0.0044385875
10	0x3d92f065	0.07174758
11	0xbe32294e	-0.17398569
12	0xbba35a83	-0.004985155
13	0x3d1a9a02	0.03774453
14	0xbd80ca76	-0.06288616
15	0x3e31079f	0.17288063
16	0xbe6e303b	-0.23260586
17	0x3d64cc9d	0.055859197
18	0x3e41043e	0.18849275
19	0x3dfba0e3	0.12286546
20	0x3d357a5b	0.04430614
21	0xbe5cde15	-0.21569093
22	0x3da50a22	0.08058573
23	0xbdc6cf93	-0.097075604
24	0x3e052538	0.13002479
25	0xbe4c4286	-0.19947252
26	0x3d608716	0.054816328
27	0xba7df45d	-0.0009687597
28	0x3da9b112	0.082857266
29	0x3d25ccd1	0.04047853
30	0x3e6530bd	0.22381873
31	0x3d142b01	0.036173824
32	0x3da2bd82	0.07946302
33	0x3cb80e7f	0.02246785
34	0x3cfbcad0	0.030736357
35	0xbebd1a9c	-0.36934364
36	0x3dce3db2	0.10070361
37	0xbc05abe8	-0.008158661
38	0x3e1a7b65	0.15086134
39	0xbe0fcb5e	-0.14042422
40	0xbdbe05dc	-0.09278461
41	0xbe079322	-0.1323972
42	0xbd4fb1c1	-0.05070663
43	0xbda8cad8	-0.082418144
44	0xbd7b9b3e	-0.061427347
45	0x3db5feff	0.08886527
46	0xbb99c819	-0.004693043
47	0xbe234ca4	-0.15947205
48	0x3de90517	0.11377924
49	0xbb084f02	-0.0020799045
50	0xbc605f42	-0.013694586
51	0xbcf5b076	-0.02999137
52	0x3e5e8db2	0.2173374
53	0x3d529d83	0.051419746
54	0x3cf28c84	0.029608019
55	0x3d8f329b	0.06992074
56	0x3d8415ce	0.064494714
57	0xbd96ba12	-0.07359709
58	0x3d86e53a	0.0658669
59	0x3d877554	0.066141754
60	0xbe0af938	-0.13571632
61	0x3e120918	0.14261281
62	0xbc764ac1	-0.015032471
63	0xbe35f276	-0.17768273
64	0x3f6ce334	0.92534184
65	0x3e10e4d5	0.14149792
66	0xbf97f8b0	-1.1872768
67	0x3f884fc6	1.0649345
68	0xbf17db77	-0.5931925
69	0x3da896bd	0.08231876
70	0xbe711cec	-0.23546189
71	0xbe92433b	-0.28566918
72	0x3f309b3f	0.68986887
73	0xbf211f26	-0.62938154
74	0x3e7264bf	0.23671244
75	0x3f704c33	0.9386627
76	0x3f873a2b	1.0564626
77	0xbf1d7f74	-0.61522603
78	0xbe5dcd6d	-0.21660395
79	0x3f343e4b	0.7040755
80	0xbe6b02e2	-0.22950318
81	0xbf19324f	-0.5984239
82	0x3e4a254c	0.1974079
83	0x3ed4480f	0.41461226
84	0xbf18af75	-0.59642726
85	0x3f6a5f32	0.91551507
86	0x3d9d7977	0.07689183
87	0xbda18881	-0.07887364
88	0xbf473b00	-0.778244
89	0xbe107326	-0.14106426
90	0xbf17f88b	-0.5936362
91	0xbf21fb4c	-0.63274074
92	0xbf41ffa9	-0.7578073
93	0xbea7e89e	-0.3279466
94	0x3f3646f5	0.7120202
95	0x3e267cd7	0.1625856
96	0xbf41ed3d	-0.7575262
97	0xbf189527	-0.5960259
98	0xbf1839ac	-0.59463
99	0xbf148951	-0.5802203
100	0xbf43ee3f	-0.7653541
101	0xbc883d30	-0.016630739
102	0x3f893aac	1.072103
103	0xbde822c6	-0.113347575
104	0x3e62d94d	0.22153206
105	0x3f35a435	0.70953685
106	0x3f5e47a2	0.86828053
107	0x3f6b623b	0.9194676
108	0xbf91c0f8	-1.1387014
109	0x3d945ca6	0.07244234
110	0xbf18eead	-0.5973919
111	0x3e8c2305	0.27370468
112	0x3db7738c	0.08957586
113	0xbd0d6d55	-0.034528095
114	0xbc8c82f6	-0.01715229
115	0xbe651322	-0.2237058
116	0x3f3621c8	0.71145296
117	0xbf185eb8	-0.5951953
118	0xbdddf1fa	-0.10837169
119	0xbf188aaa	-0.59586585
120	0xbd853d1b	-0.065057956
121	0x3e5133ce	0.20429918
122	0xbf18155a	-0.5940758
123	0xbf17e7ab	-0.5933787
124	0x3e85ac61	0.26108077
125	0xbf579fe0	-0.84228325
126	0x3f86c5c6	1.0529106
127	0x3f389e00	0.7211609

net.2.bias f4 [2]
0	0xbe3af586	-0.18257722
1	0x3df85980	0.12126446
