RLX_example_unmeas/models/model_IO_1step_noise.pkl (torch_old, 2377 bytes, 3 tensors)

net.0.weight f4 [64, 4]
0	0x3de333e8	0.11093885
1	0xbe0607f6	-0.13088974
2	0x3cb86ca9	0.02251275
3	0xbae52e1a	-0.0017485053
4	0xbddd3607	-0.108013205
5	0x3e0a79fb	0.13523094
6	0xbd22b8c8	-0.039727002
7	0x3b29abbf	0.0025889722
8	0xbe08dacf	-0.13364719
9	0x3e049d60	0.12950659
10	0xbc42aac3	-0.011881533
11	0x3c8f2476	0.01747344
12	0xbe0a1bc8	-0.1348716
13	0x3e05e5d1	0.13075949
14	0xbc396396	-0.011315247
15	0x3c8a50aa	0.016884167
16	0xbe06d3e4	-0.13166767
17	0x3e0fb5e7	0.14034234
18	0xbcdd5d80	-0.027022123
19	0x3c2ba4cc	0.010476302
20	0xbe029520	-0.12752199
21	0x3e0923db	0.13392584
22	0xbce60a8c	-0.028081201
23	0x3c6f39c7	0.014601178
24	0xbe07808e	-0.13232633
25	0x3e034e1b	0.12822764
26	0xbc4316e5	-0.011907314
27	0x3c8ee73a	0.017444242
28	0xbdf3aca3	-0.11898162
29	0x3e0ad488	0.13557637
30	0xbd05f5c1	-0.032705072
31	0x3be95a5f	0.007121369
32	0xbe08d4a2	-0.13362363
33	0x3e04b314	0.12958938
34	0xbc410c33	-0.011782694
35	0x3c8d4856	0.017246407
36	0xbe07e55a	-0.13271084
37	0x3e03c83f	0.12869357
38	0xbc469f49	-0.0121229375
39	0x3c900343	0.01757968
40	0x3ddd406c	0.10803303
41	0xbe0344f5	-0.12819274
42	0x3cc5dc09	0.024152773
43	0x3b405478	0.0029347222
44	0x3e04f756	0.12984976
45	0xbe022d4c	-0.12712592
46	0x3c39a351	0.011330442
47	0xbc76676b	-0.015039305
48	0xbe08cb12	-0.13358715
49	0x3e04a3b3	0.12953071
50	0xbc395ed3	-0.011314112
51	0x3c89ba29	0.0168124
52	0x3de13a54	0.10997453
53	0xbe02dcb6	-0.12779507
54	0x3ca5ff77	0.020263417
55	0xbbe8e32a	-0.007107158
56	0xbe08fd34	-0.1337784
57	0x3e04bfe9	0.12963833
58	0xbc5ca4b5	-0.013467004
59	0x3c9c44a3	0.019075697
60	0x3ddfa209	0.10919578
61	0xbe06694d	-0.13126107
62	0x3cbda6ec	0.023150884
63	0xbbece902	-0.007229925
64	0x3de17b4e	0.11009847
65	0xbdff5866	-0.124680325
66	0x3ca92191	0.020645889
67	0xba4a01ef	-0.00077059766
68	0xbe08f814	-0.13375884
69	0x3e04d756	0.12972769
70	0xbc6944c2	-0.014237585
71	0x3ca1d84b	0.019756457
72	0xbe096da4	-0.13420731
73	0x3e054084	0.13012892
74	0xbc4b3fe7	-0.012405372
75	0x3c92f344	0.017938264
76	0x3e004c0f	0.12529014
77	0xbdfb3525	-0.12265996
78	0x3c201746	0.009771174
79	0xbc5aaaab	-0.0133463545
80	0x3ddb30fe	0.10702704
81	0xbe045695	-0.12923653
82	0x3cb5d9fd	0.022198671
83	0xbbc6a05a	-0.006061596
84	0x3e0413cb	0.12898175
85	0xbe018185	-0.12647064
86	0x3c08a28a	0.008339534
87	0xbc40b45c	-0.011761751
88	0xbdf8c5b3	-0.12147083
89	0x3e07cada	0.13260975
90	0xbce8b0fd	-0.028404707
91	0x3c1ccc5d	0.009570208
92	0xbe085134	-0.13312227
93	0x3e046df9	0.12932576
94	0xbc6baa4c	-0.014383864
95	0x3ca0fb61	0.019651117
96	0xbe0297d0	-0.12753224
97	0x3e0b36d2	0.13595131
98	0xbcf3c06d	-0.029754842
99	0x3c6212da	0.01379844
100	0xbe0a24d3	-0.1349061
101	0x3e05f357	0.13081108
102	0xbc4172cc	-0.011807155
103	0x3c8e3bf7	0.017362578
104	0x3de1edc0	0.11031675
105	0xbe08cf03	-0.13360219
106	0x3d0f06a3	0.03491844
107	0x3c59646d	0.013268572
108	0x3ddcba10	0.10777676
109	0xbe0757a0	-0.1321702
110	0x3d2982fa	0.041384675
111	0x3cac502e	0.021034326
112	0xbe07e835	-0.13272174
113	0x3e03e62b	0.12880771
114	0xbc5a67c3	-0.013330403
115	0x3c992ed6	0.01869909
116	0x3dfd8efc	0.12380788
117	0xbdf82935	-0.121172346
118	0x3c310729	0.01080493
119	0xbc6bbfa0	-0.014388949
120	0xbe0eb9f0	-0.13938117
121	0x3e0ab554	0.13545734
122	0xbc673292	-0.014111178
123	0x3ca0220f	0.01954749
124	0xbdf0e608	-0.11762625
125	0x3e0a17f7	0.13485704
126	0xbd04e537	-0.03244516
127	0x3bcce7ae	0.0062532043
128	0x3e011743	0.1260653
129	0xbdfccffc	-0.12344357
130	0x3c139180	0.009006858
131	0xbc4e29b0	-0.012583181
132	0x3dfe739a	0.12424393
133	0xbdf93170	-0.121676326
134	0x3c0db6c6	0.008649534
135	0xbc472c56	-0.012156567
136	0xbde2e1ff	-0.110782616
137	0x3e0dd5b8	0.13851058
138	0xbcd128b0	-0.025532097
139	0x3c41db69	0.011832097
140	0x3dff5a50	0.124683976
141	0xbdfa1a63	-0.12212064
142	0x3c10008d	0.008789194
143	0xbc4962ae	-0.0122915935
144	0x3dfdd7e0	0.123946905
145	0xbdf8a2e6	-0.121404454
146	0x3c03c45a	0.008042419
147	0xbc3cc44b	-0.011521409
148	0x3df92118	0.12164515
149	0xbdf3efcc	-0.11910972
150	0x3c140bd2	0.009036021
151	0xbc4cb4d7	-0.012494287
152	0xbe08c377	-0.13355814
153	0x3e049081	0.12945749
154	0xbc781819	-0.015142464
155	0x3ca9e292	0.02073792
156	0xbe0918a1	-0.13388301
157	0x3e051ecc	0.1300003
158	0xbc6a64a4	-0.014306221
159	0x3ca0ec5a	0.019643951
160	0xbe0c69ad	-0.13712187
161	0x3e081552	0.13289383
162	0xbc38be79	-0.011275881
163	0x3c8b3722	0.016994063
164	0xbde79b11	-0.113088734
165	0x3e0d383a	0.1379098
166	0xbcc33f28	-0.023833826
167	0x3c4f519b	0.012653734
168	0x3e00c089	0.12573446
169	0xbdfbf770	-0.12303054
170	0x3c4b8e79	0.012424105
171	0xbc83bfbd	-0.016082639
172	0x3dfdca94	0.12392154
173	0xbdf8e3eb	-0.12152847
174	0x3c259c09	0.010108002
175	0xbc5bb761	-0.01341042
176	0xbe0a702e	-0.13519356
177	0x3e065fbd	0.13122459
178	0xbc3464d7	-0.01101037
179	0x3c868077	0.016418679
180	0x3dde9116	0.10867517
181	0xbe032192	-0.12805775
182	0x3cb7bab9	0.022427903
183	0x3b65ca25	0.0035063114
184	0xbdf6118a	-0.12015064
185	0x3e0a0f7a	0.13482466
186	0xbd042614	-0.032262877
187	0x3c100648	0.00879056
188	0x3e05cb4b	0.13065831
189	0xbe02f2fd	-0.12788005
190	0x3c28b1be	0.010296283
191	0xbc663748	-0.014051266
192	0x3dfcd30e	0.12344943
193	0xbdf78e36	-0.120876715
194	0x3c0ff2c7	0.00878591
195	0xbc49909c	-0.012302544
196	0x3dfdcbb8	0.12392372
197	0xbdf87c1c	-0.12133047
198	0x3c2f59f4	0.010702599
199	0xbc694578	-0.014237754
200	0xbe0ab01d	-0.13543744
201	0x3e066f75	0.13128455
202	0xbc7b31bf	-0.015331685
203	0x3cabf4da	0.020990778
204	0xbe09cd00	-0.13457108
205	0x3e05ad65	0.13054426
206	0xbc3ce0aa	-0.011528173
207	0x3c8b289b	0.016987136
208	0x3e003b21	0.12522556
209	0xbdfb2775	-0.12263385
210	0x3c07943b	0.008275087
211	0xbc4198b2	-0.011816191
212	0x3e02c4ef	0.12770437
213	0xbe00041f	-0.12501572
214	0x3c25674c	0.010095429
215	0xbc612edf	-0.013744085
216	0xbe0aa8ca	-0.1354095
217	0x3e06a78c	0.13149852
218	0xbc600dc5	-0.013675158
219	0x3c9c0566	0.019045543
220	0x3ddffe43	0.109371684
221	0xbe060f06	-0.13091668
222	0x3cb0bf3b	0.02157556
223	0xbbc5c8eb	-0.006035914
224	0x3dda9371	0.106726535
225	0xbe06b4a1	-0.13154842
226	0x3d2c8ef4	0.04212852
227	0x3cb38823	0.021915501
228	0xbdf638f4	-0.12022582
229	0x3e07f48c	0.13276881
230	0xbcf51daf	-0.02992138
231	0x3c14e504	0.009087805
232	0x3dd7e143	0.10541012
233	0xbe002a9f	-0.12516259
234	0x3cc2b203	0.023766523
235	0x3b2d12e1	0.0026408958
236	0xbe0b26b9	-0.1358899
237	0x3e072498	0.13197553
238	0xbc339fa6	-0.010963356
239	0x3cc485e4	0.023989625
240	0x3dfcc63e	0.12342499
241	0xbdf77305	-0.12082485
242	0x3c23503d	0.009967861
243	0xbc5d4e0e	-0.013507379
244	0xbe06e6b2	-0.13173941
245	0x3e02b029	0.12762512
246	0xbc610739	-0.013734632
247	0x3c9e5374	0.019326903
248	0xbe092df9	-0.13396443
249	0x3e04df56	0.12975821
250	0xbc45c990	-0.012071982
251	0x3c9163e2	0.017747823
252	0x3e006b90	0.12541032
253	0xbdfb6816	-0.12275712
254	0x3c2c6540	0.010522187
255	0xbc6778f9	-0.014127963

net.0.bias f4 [64]
0	0x3e01dff5	0.12683089
1	0x3e057938	0.13034523
2	0x3e260338	0.16212165
3	0x3e232da3	0.15935378
4	0x3e166a42	0.14688972
5	0x3e13a79b	0.14419405
6	0x3e228736	0.15871891
7	0x3e0f9020	0.14019823
8	0x3e23839a	0.15968171
9	0x3e1f66e3	0.15566592
10	0x3e0261ae	0.12732574
11	0x3e1a4dbe	0.15068719
12	0x3e20adfd	0.15691371
13	0x3dfcfbae	0.123526916
14	0x3e2569f9	0.16153707
15	0x3e0207ef	0.12698339
16	0x3e0349c8	0.12821114
17	0x3e26e602	0.16298679
18	0x3e255394	0.16145164
19	0x3e193539	0.14961709
20	0x3dfbe2ec	0.12299141
21	0x3e0a8968	0.13528979
22	0x3e0c9cbe	0.13731667
23	0x3e22b3b8	0.1588887
24	0x3e1471c7	0.14496528
25	0x3e23db32	0.16001585
26	0x3de18105	0.11010937
27	0x3dd8139a	0.10550614
28	0x3e258f5a	0.16167966
29	0x3e188d43	0.14897637
30	0x3e28843d	0.16456695
31	0x3e0b7ef9	0.13622655
32	0x3e18f7d1	0.14938284
33	0x3e1897e1	0.14901687
34	0x3e0a91dc	0.13532203
35	0x3e1d2764	0.15347058
36	0x3e184253	0.1486905
37	0x3e198b90	0.14994645
38	0x3e270837	0.16311727
39	0x3e2475ac	0.16060513
40	0x3e224451	0.15846373
41	0x3e0ab01f	0.13543747
42	0x3e19178a	0.14950386
43	0x3e0eb302	0.13935474
44	0x3e21f4ed	0.15816088
45	0x3e0500f2	0.12988642
46	0x3e0de26b	0.13855903
47	0x3e116f7d	0.14202686
48	0x3e150ff4	0.14556867
49	0x3e16a62b	0.14711826
50	0x3e26f55a	0.16304532
51	0x3e22bbeb	0.15891998
52	0x3e18ed22	0.14934209
53	0x3e1c49e8	0.15262568
54	0x3e217ae3	0.15769534
55	0x3e008a61	0.12552787
56	0x3dd43dc8	0.10363346
57	0x3e0c90aa	0.1372706
58	0x3dfba07a	0.12286468
59	0x3e1b3f23	0.15160803
60	0x3e139fd5	0.1441644
61	0x3e239d31	0.15977933
62	0x3e21c486	0.15797624
63	0x3e12a8fa	0.14322272

net.2.weight f4 [1, 64]
0	0x3dc835b0	0.09775865
1	0xbddb5155	-0.10708872
2	0xbddf3a2f	-0.108997695
3	0xbde148ee	-0.11000238
4	0xbde2e4e0	-0.11078811
5	0xbdda0846	-0.10646109
6	0xbde34382	-0.110968605
7	0xbde14daf	-0.11001145
8	0xbde46d53	-0.111536644
9	0xbdea3526	-0.114359185
10	0x3dcead73	0.100916766
11	0x3de91f3d	0.11382911
12	0xbde62ca2	-0.11238982
13	0x3dd09288	0.101841986
14	0xbde16f34	-0.110075384
15	0x3dd4ebde	0.103965506
16	0x3dd2c3dc	0.102912635
17	0xbde2c5db	-0.11072894
18	0xbde2c750	-0.11073172
19	0x3dde777f	0.10862636
20	0x3dd51afe	0.10405539
21	0x3dd6d8d5	0.10490576
22	0xbdddf417	-0.10837572
23	0xbdeb0361	-0.11475254
24	0xbddef51e	-0.10886596
25	0xbde2bb64	-0.11070898
26	0x3dd3da25	0.10344342
27	0x3dd2c292	0.102910176
28	0xbde6553f	-0.11246728
29	0x3dd71ea0	0.10503888
30	0xbdf193ad	-0.11795745
31	0xbddc5c75	-0.10759822
32	0x3ddb5f95	0.1071159
33	0x3dd45b74	0.10369006
34	0xbdde2139	-0.108461805
35	0x3dd7510e	0.10513507
36	0x3dd32599	0.103099056
37	0x3dd5a15f	0.1043117
38	0xbde22c4a	-0.11043604
39	0xbde8a7f3	-0.11360159
40	0xbddccbdc	-0.107810706
41	0xbddcde99	-0.10784645
42	0x3ddf47b9	0.10902352
43	0x3dd1674c	0.102247804
44	0xbde8a822	-0.11360194
45	0x3dce8e87	0.10085779
46	0xbddfc366	-0.10925941
47	0x3ddbdd6a	0.10735591
48	0x3dd5a3c8	0.104316294
49	0x3dd4cc6b	0.10390552
50	0xbde302f4	-0.11084548
51	0xbde450ed	-0.11148248
52	0x3dddec7f	0.10836124
53	0x3ddd09fa	0.107929185
54	0xbdec2c91	-0.11531938
55	0x3dccb5a5	0.099955834
56	0x3dd2c693	0.10291781
57	0xbddd68a6	-0.10810976
58	0x3dcf13a5	0.10111169
59	0xbdefe8d9	-0.11714334
60	0x3dd6bdd5	0.10485426
61	0xbde52a94	-0.11189762
62	0xbde0ef41	-0.10983134
63	0x3dd6cb0c	0.10487947
