RLX_example_unmeas/models/model_IO_1step_nonoise.pkl (torch_old, 2377 bytes, 3 tensors)

net.0.weight f4 [64, 4]
-0.10580061 0.19474433 -0.041111834 -0.004874974 0.107021675 -0.19299223 0.007258445 0.040704805
0.1969945 -0.16014558 -0.025144244 -0.02496799 -0.18668012 0.18345168 0.0013608212 0.0018540723
0.18208408 -0.1772171 -0.0008247114 -0.004236775 -0.14243217 0.20191656 0.015303223 -0.01918039
0.18952627 -0.17433263 -0.060838427 -0.029312175 0.18907383 -0.17701426 -0.0042256736 -0.0068388684
0.17322284 -0.16882682 -0.0030387202 -0.001266701 -0.19288309 0.18148103 0.017402455 -0.0057130796
-0.19594328 0.17859854 0.006322381 0.0060678353 -0.19461751 0.18217942 0.006560089 0.006248812
0.2146581 -0.15571025 0.03582988 0.03128172 -0.18680377 0.18113104 0.008814242 -0.0023136337
-0.17884791 0.17472601 0.0028097248 0.0014950174 -0.18159668 0.17739837 -0.0007845675 0.0051385555
-0.2022112 0.16436476 0.035501055 0.0056393677 -0.17491037 0.17012306 -0.00020970013 0.005009281
-0.16321935 0.16925162 0.017376667 -0.023527592 0.18410383 -0.17696242 -0.0048696073 -0.003233843
-0.18020505 0.16682799 0.06518086 0.06277465 0.19139145 -0.18214749 -0.029778894 -0.007314559
-0.21634206 0.14654312 -0.015484544 -0.04866792 -0.18108131 0.18130524 0.029826073 0.019184574
-0.19389993 0.18433288 0.0021453917 0.0022868773 -0.18084237 0.17662886 0.0015039253 0.0029136438
0.14626034 -0.19544229 0.07658571 0.10302752 -0.1924598 0.18468064 0.006051821 0.0011897333
-0.19473824 0.18184623 0.012969233 -4.595422e-05 -0.17564832 0.18036631 0.0035662756 -0.0082852775
0.1830545 -0.17588228 -0.0017745962 -0.006679075 0.18947847 -0.19412105 0.00033618748 0.0043543642
-0.19032283 0.15942915 0.0671104 0.060647216 0.14748523 -0.20024577 0.04336519 0.058977548
0.18237214 -0.17932758 0.003309433 -0.006245545 -0.14346592 0.18079856 -0.07276716 -0.056691743
-0.15401384 0.15730724 -0.0017737723 -0.0016271375 0.18851635 -0.17736259 -0.004375569 -0.0066964757
0.17725277 -0.17293637 -0.0045718276 0.00037038216 0.17164072 -0.16660127 -0.0027344069 -0.002276756
0.18720347 -0.18001375 -0.0023910755 -0.0043490245 0.1757347 -0.18113516 -0.0075639915 0.012769931
-0.17765707 0.17318563 0.0022321122 0.002287363 0.18558261 -0.17698836 -0.008141194 0.0022799843
0.17056681 -0.18947372 -0.010681962 -0.0012594451 0.17745002 -0.17314301 -0.005239279 0.0010450272
0.18785621 -0.17222999 -0.009100549 0.0018867876 -0.18403989 0.17933638 0.0008800701 -0.0025982931
0.19101714 -0.17648998 -0.008392757 -0.0067144367 -0.1319222 0.19157843 -0.06431403 -0.052849382
0.17181541 -0.16672707 -0.0027465886 -0.0023111075 -0.17437102 0.16871884 -0.00027663494 0.0058030514
0.193587 -0.1598968 -0.017813731 -0.011872603 0.18964565 -0.17056331 -0.00982436 0.001225908
-0.17461409 0.16986896 0.00023725134 0.004525779 -0.194674 0.18011707 0.027464814 -0.004720338
0.13493545 -0.19493382 0.012940321 -0.013578242 0.17971261 -0.174486 -0.076013096 -0.050928783
-0.19582257 0.18148504 0.010146729 0.006133255 0.17298406 -0.16859776 -0.0023251842 -0.0019679498
-0.17940742 0.17177653 -0.042546876 -0.038513377 0.18441953 -0.1748008 -0.011432548 -0.0034261178
0.12992276 -0.1852597 -0.0011103259 0.018832045 -0.20578885 0.16636816 0.01579157 0.011688904
00000000: fdad d8bd 0f6b 473e e264 28bd 3fbe 9fbb
00000010: 2e2e db3d c19f 45be 40d8 ed3b 15ba 263d
00000020: edb8 493e 34fd 23be 4dfb cdbc ac89 ccbc
00000030: 1329 3fbe c2da 3b3e 955d b23a 5804 f33a
00000040: 4074 3a3e 6678 35be 7231 58ba a5d4 8abb
00000050: bdd9 11be 37c3 4e3e 5fba 7a3c 3120 9dbc
00000060: 2d13 423e 4184 32be b731 79bd 1620 f0bc
00000070: 929c 413e 3a43 35be 8577 8abb 9618 e0bb
00000080: 5461 313e f0e0 2cbe 4425 47bb 6f07 a6ba
00000090: 2583 45be 2ad6 393e 988f 8e3c c934 bbbb
000000a0: 5ba5 48be 89e2 363e fa2b cf3b b1d4 c63b
000000b0: d049 47be 3e8d 3a3e 04f6 d63b d6c2 cc3b
000000c0: 55cf 5b3e 8272 1fbe 5ac2 123d 4321 003d
000000d0: 7d49 3fbe 6a7a 393e 9c69 103c 55a0 17bb
000000e0: e823 37be 60eb 323e 5c23 383b 76f4 c33a
000000f0: 7bf4 39be eba7 353e 6fab 4dba 5461 a83b
00000100: 7410 4fbe 3c4f 283e 8e69 113d 72ca b83b
00000110: b41b 33be bd34 2e3e f3e2 5bb9 e524 a43b
00000120: f922 27be 4c50 2d3e 8359 8e3c f0bc c0bc
00000130: b785 3c3e a335 35be 3a91 9fbb e2ee 53bb
00000140: ac87 38be f5d4 2a3e 8b7d 853d ff8f 803d
00000150: 1ffc 433e df84 3abe def2 f3bc f8ae efbb
00000160: c688 5dbe 660f 163e e3b2 7dbc 0358 47bd
00000170: 616d 39be 15a8 393e cf55 f43c f828 9d3c
00000180: b48d 46be c2c1 3c3e b399 0c3b 6fdf 153b
00000190: be2e 39be 32de 343e 5c1f c53a d5f2 3e3b
000001a0: 45c5 153e 0622 48be f8d8 9c3d 1800 d33d
000001b0: 2f14 45be ec1c 3d3e 5b4e c63b d3f0 9b3a
000001c0: 7669 47be e635 3a3e e87c 543c f8be 40b8
000001d0: 27dd 33be f2b1 383e 2db8 693b f9be 07bc
000001e0: a472 3b3e 7c1a 34be 9199 e8ba 24dc dabb
000001f0: a506 423e abc7 46be 5242 b039 0eaf 8e3b
00000200: fde3 42be 6541 233e 2d71 893d 3769 783d
00000210: 5e06 173e 3a0d 4dbe b39f 313d 7192 713d
00000220: c3bf 3a3e a6a1 37be 13e3 583b 6ea7 ccbb
00000230: bbe8 12be 4223 393e f306 95bd 9a35 68bd
00000240: ceb5 1dbe 2615 213e ec7d e8ba ad45 d5ba
00000250: 6e0a 413e 8a9e 35be ef60 8fbb 1c6e dbbb
00000260: c081 353e 3b16 31be 45cf 95bb da2f c239
00000270: 96c2 2f3e 8699 2abe bc33 33bb a135 15bb
00000280: 44b2 3f3e 8655 38be 97b3 1cbb 4382 8ebb
00000290: ccf3 333e 7f7b 39be 5cdb f7bb f938 513c
000002a0: bceb 35be 9357 313e a148 123b 95e7 153b
000002b0: 5e09 3e3e 703c 35be a462 05bc ca6b 153b
000002c0: 11a9 2e3e 6605 42be 6503 2fbc f713 a5ba
000002d0: 75b5 353e 674c 31be 42ae abbb 4bf9 883a
000002e0: 615d 403e 0f5d 30be 781a 15bc 164e f73a
000002f0: f474 3cbe f5a3 373e 81b4 663a 2048 2abb
00000300: ff99 433e cab9 34be c681 09bc c704 dcbb
00000310: 9d16 07be 232d 443e 13b7 83bd 9878 58bd
00000320: 61f0 2f3e 80ba 2abe 1c00 34bb f375 17bb
00000330: 518e 32be a2c4 2c3e 5009 91b9 8627 be3b
00000340: ac3b 463e fdbb 23be 1aee 91bc 4e85 42bc
00000350: 7832 423e 26a8 2ebe 5af6 20bc a6ae a03a
00000360: 09ce 32be 21f2 2d3e acc6 7839 fc4c 943b
00000370: 9f58 47be 9c70 383e e4fd e03c 11ad 9abb
00000380: 852c 0a3e bb9c 47be a403 543c 4677 5ebc
00000390: 9506 383e 75ac 32be c1ac 9bbd b39a 50bd
000003a0: b685 48be 37d7 393e 773e 263c 79f9 c83b
000003b0: bc22 313e e4a4 2cbe 1e62 18bb b8f8 00bb
000003c0: 94b6 37be 30e6 2f3e a245 2ebd 34c0 1dbd
000003d0: 79d8 3c3e fbfe 32be 954f 3bbc b888 60bb
000003e0: 790a 053e b8b4 3dbe 5b88 91ba a945 9a3c
000003f0: 50ba 52be 6a5c 2a3e 535d 813c d182 3f3c

net.0.bias f4 [64]
0.19129226 -0.17680404 -0.4741941 0.23642029 0.67138535 0.018079903 0.10908368 0.051454943
0.7014314 0.055781506 0.1384878 0.10904679 -0.083895646 0.48248863 0.69584745 0.6716175
-0.39100876 0.7465363 -0.98367214 0.45882288 0.06470374 0.077409655 0.03735202 -0.20584086
0.09143867 0.70182633 0.026818883 -0.17037484 -0.023430616 -0.8100797 0.5445437 -0.92036086
-0.17980066 -0.25681892 -0.2827032 -0.09294123 -0.73465216 0.032251284 0.70872676 0.73963207
-0.3498199 -0.9774107 0.73692465 0.01196248 0.114831 0.7104764 0.15087253 0.075638264
-0.028548999 0.2541985 0.7422313 0.795497 -0.5253542 0.076544255 0.7433723 -0.035757933
0.0603284 0.05670146 0.097570434 0.6992176 0.014663513 0.011228986 -0.21689443 -0.26629096
00000000: 1ee2 433e 1e0c 35be 92c9 f2be 2918 723e
00000010: e9df 2b3f 4e1c 943c 4467 df3d 6bc2 523d
00000020: 0291 333f 267b 643d bfcf 0d3e ec53 df3d
00000030: 7bd1 abbd c008 f73e 0f23 323f 20ef 2b3f
00000040: 4d32 c8be 011d 3f3f f0d1 7bbf d5ea ea3e
00000050: 6583 843d f488 9e3d 6ffe 183d f2c7 52be
00000060: 3344 bb3d e4aa 333f 46b3 db3c be76 2ebe
00000070: 90f1 bfbc 6261 4fbf 3767 0b3f c59c 6bbf
00000080: aa1d 38be c57d 83be 79be 90be f957 bebd
00000090: 2a12 3cbf ec19 043d 1e6f 353f 8758 3d3f
000000a0: 981b b3be 9637 7abf 18a7 3c3f 47fe 433c
000000b0: 842c eb3d c8e1 353f 547e 1a3e 3ce8 9a3d
000000c0: 97df e9bc 4e26 823e df02 3e3f b1a5 4b3f
000000d0: 9d7d 06bf 3cc3 9c3d a64d 3e3f e976 12bd
000000e0: ea1a 773d ca3f 683d 02d3 c73d edff 323f
000000f0: 3b3f 703c c8f9 373c 9319 5ebe 4a57 88be

net.2.weight f4 [1, 64]
-0.15108645 0.12283964 0.0064366963 0.12503923 0.11663377 -0.15653281 0.1456426 -0.14331949
0.4459728 0.08109655 -0.010183963 0.018686783 0.15487322 -0.031739313 -0.3471299 -0.23933978
-0.044830143 -0.42784324 -0.8709535 0.04057827 -0.12683916 0.053587954 -0.11955606 -0.12053123
0.051987957 -0.3021895 0.15817927 0.110522665 0.21475033 -0.80581653 0.07923596 0.99853605
-0.12268841 0.13161542 0.14428757 -0.13555923 -0.65902376 -0.16614935 0.3196387 0.46866181
-0.41931552 1.0253958 -0.3790756 -0.009204729 -0.047980726 0.3558193 0.02119763 -0.017587854
-0.14470305 -0.12402102 0.46927872 -0.4440771 0.08164284 0.0248363 -0.42685923 0.044964842
0.1313774 0.15113685 0.13258927 0.4206884 -0.10740562 -0.08892627 0.106145404 -0.043459505
00000000: 68b6 1abe 5993 fb3d ecea d23b 490a 003e
00000010: b0dd ee3d 234a 20be 5523 153e 58c2 12be
00000020: 8c56 e43e f315 a63d a3da 26bc 0615 993c
00000030: 1697 1e3e 1501 02bd 03bb b1be 7d15 75be
00000040: d09f 37bd 450e dbbe cff6 5ebf 6635 263d
00000050: 20e2 01be 0b7f 5b3d cfd9 f4bd 14d9 f6bd
00000060: 53f1 543d 95b8 9abe bff9 213e b559 e23d
00000070: 83e7 5b3e fe49 4ebf 7746 a23d 0fa0 7f3f
00000080: 1044 fbbd 31c6 063e 1fc0 133e 0ad0 0abe
00000090: c8b5 28bf 0e23 2abe afa7 a33e 71f4 ef3e
000000a0: 86b0 d6be 2b40 833f 3216 c2be 6fcf 16bc
000000b0: 7087 44bd f32d b63e a7a6 ad3c 6714 90bc
000000c0: 092d 14be bcfe fdbd 4d45 f03e 135e e3be
000000d0: 5c34 a73d 7f75 cb3c 4b8d dabe 0e2d 383d
000000e0: cc87 063e 9ec3 1a3e 7bc5 073e 7864 d73e
000000f0: 7af7 dbbd fa1e b6bd c362 d93d 9802 32bd
