RLX_example_unmeas/models/model_IO_1step_noise.pkl (torch_old, 2377 bytes, 3 tensors)

net.0.weight f4 [64, 4]
000000 ca 62 46 3e 53 27 30 be 54 80 35 bc 9a 9d db 3a
       0.19373623 -0.17202501 -0.011077959 0.0016755343
000010 12 bd 0c 3e a2 2b 52 be 3b e4 6f 3d 7c a5 8f 3d
       0.13744 -0.20524457 0.058567267 0.070139855
000020 5f 1e 3a 3e fc 1a 35 be 5c 2f 3c bb 2f 8c 0c bb
       0.18175648 -0.17686075 -0.0028714752 -0.002144586
000030 b0 e6 2a 3e f3 46 25 be b8 8a f1 b9 d9 40 a3 bb
       0.16689563 -0.16140346 -0.00046070456 -0.0049820957
000040 a6 3d 2f 3e e2 b0 29 be 0a 1f f1 ba de cb 66 bb
       0.17113361 -0.16571382 -0.0018396091 -0.003521673
000050 59 55 2e be 3d a7 29 3e 99 f9 4f ba cb dd b0 3b
       -0.17024745 0.16567703 -0.0007933616 0.0053975335
000060 4b d3 3f 3e 4a fd 32 be 02 e3 15 bc 0b 38 6f 3b
       0.18732946 -0.17479435 -0.009148361 0.003650191
000070 ea 88 04 be 70 e8 46 3e d5 b7 3b 3c 91 22 8c bc
       -0.12942854 0.19424605 0.011457403 -0.017106326
000080 d2 8c 3f be 09 16 36 3e d2 1d 5f 37 d4 c7 8f 3b
       -0.18706062 0.17781843 1.3298779e-05 0.004387835
000090 4d 3c fa bd 0c b9 33 3e 2a 8f 0a bd 9c 0b 38 3b
       -0.12218533 0.17551059 -0.03382794 0.0028083092
0000a0 0f 52 47 be 30 9e 37 3e 8c 44 da 3b 66 82 a0 3b
       -0.19464897 0.17931437 0.0066610035 0.004898357
0000b0 87 a6 0f 3e aa 6d 4f be b3 87 f2 3b 9a aa eb 3c
       0.14028369 -0.20256677 0.0074014305 0.028767873
0000c0 09 36 2c 3e 72 df 46 be a0 47 b9 3c 7f 63 eb 3c
       0.16817488 -0.19421175 0.022617161 0.028733967
0000d0 0c 4b 2e be ae 8d 3e 3e d1 22 25 3d da a2 d7 3c
       -0.17020816 0.18608734 0.040316407 0.02632277
0000e0 95 72 32 be c0 f6 2d 3e 8f 06 65 bb f9 b2 03 3c
       -0.17426522 0.16988659 -0.0034946536 0.008038276
0000f0 40 aa 3d be 25 15 30 3e c7 17 00 3b 04 41 28 3c
       -0.18521976 0.17195566 0.0019545422 0.010269407
000100 d6 a9 00 be 6b c3 38 3e 69 cf d0 bc fd 78 5e bb
       -0.12564787 0.18043296 -0.025489526 -0.0033946626
000110 b9 33 49 be 12 09 2e 3e 74 6d 1b 3c 51 9f 13 3b
       -0.19648637 0.16995648 0.009486545 0.002252538
000120 02 b4 3e 3e fb 22 30 be d1 94 76 bd 08 db 01 bd
       0.18623355 -0.17200844 -0.060200516 -0.031703025
000130 6a b0 04 be f9 cb 48 3e 72 96 92 bd 5c 7d 73 bd
       -0.12957922 0.1960906 -0.071576014 -0.059445724
000140 a2 05 53 3e 50 38 1c be 3e 80 2d bd 96 57 0b bd
       0.20607617 -0.15255857 -0.04235863 -0.034019075
000150 80 a4 3b 3e eb f4 36 be 2f 2f 9b bb bd be 20 3b
       0.1832447 -0.17866866 -0.0047358493 0.0024527751
000160 8c 33 24 3e 94 d3 41 be f2 db 59 bd 1a f9 0d bd
       0.16035289 -0.18928367 -0.05318827 -0.03466139
000170 db 3d 3c 3e c4 e5 30 be 8d 12 ad ba bc 17 08 bc
       0.18382971 -0.17275149 -0.0013204381 -0.00830644
000180 36 8d 4f be e4 9c 29 3e 3b d6 1e 3d 8e b2 0d 3b
       -0.20268711 0.16563755 0.038778525 0.002162132
000190 68 f1 4b 3e 67 98 3b be 56 3d f7 bb 9d d9 97 b8
       0.19916308 -0.18319856 -0.0075451536 -7.240775e-05
0001a0 00 24 4a be 2c 36 1f 3e f5 e4 99 3c a2 69 2c 3c
       -0.19740295 0.15548009 0.018785933 0.010523232
0001b0 7e 87 38 be 68 d7 21 3e 67 0e 7f 3d 1d 7c 7f 3d
       -0.18020436 0.15804827 0.062269595 0.062374223
0001c0 c7 9e 37 be e7 c5 2f 3e 72 0d bb ba 28 6c 03 3c
       -0.17931662 0.17165338 -0.0014270975 0.008021392
0001d0 35 99 38 be cf 56 36 3e de 94 fa 3b 93 ea b3 bb
       -0.18027194 0.17806552 0.007647141 -0.00549061
0001e0 87 3f 63 be 2f 06 20 3e 2c fa b9 3b 9e 2e c5 bc
       -0.22192203 0.15627359 0.0056755748 -0.02407008
0001f0 39 5d 3d 3e 93 df 37 be 17 0f 69 bb 88 4c 0e bb
       0.18492593 -0.1795638 -0.0035561973 -0.0021713097
000200 c2 2f 42 3e c5 e8 47 be 0d 17 3f bb e0 26 08 3c
       0.1896353 -0.19522388 -0.0029158026 0.00831005
000210 ed ad 3b 3e 3e 8e 36 be 9e 26 25 bb b2 66 2b bb
       0.18328066 -0.17827699 -0.002520002 -0.002615374
000220 1e 7f 2e be 59 3b 2a 3e 98 01 d6 3a b9 a7 34 3b
       -0.17040679 0.16624202 0.0016327379 0.002756579
000230 b7 27 2a 3e 96 6c 47 be 4e 19 82 3d 11 99 99 3d
       0.16616713 -0.19475016 0.06352483 0.07499898
000240 0b 4c 3d be 29 b6 30 3e 36 68 4a 3c c3 03 43 3b
       -0.1848604 0.17256989 0.012353947 0.002975688
000250 9e 73 3e 3e 3b 69 1c be a2 69 93 bc fa 63 36 bc
       0.18598792 -0.15274517 -0.017994706 -0.011132235
000260 6a d8 3b be cb a5 34 3e 20 78 5d 3b ed 85 7a 3b
       -0.18344274 0.1764137 0.0033793524 0.0038226799
000270 6c ae 3b be 70 0c 35 3e 73 4b 8b bb 01 e9 86 bb
       -0.18328255 0.17680526 -0.0042509376 -0.0041171317
000280 58 17 37 3e 01 2b 32 be 59 77 18 bb 00 e1 1a bb
       0.17879999 -0.17399217 -0.0023264496 -0.0023632646
000290 19 09 34 be 94 46 3a 3e 15 08 5b 3c e3 63 a0 bc
       -0.17581595 0.18190986 0.013368626 -0.01957888
0002a0 37 77 2a be be b1 24 3e 02 37 2b 3b 8c 78 49 3b
       -0.1664704 0.16083428 0.0026125317 0.0030742018
0002b0 c2 c0 40 3e 8e 4f 36 be 8b 95 ca bb 11 3d ef bb
       0.18823531 -0.17803785 -0.0061823777 -0.007300981
0002c0 1a f6 43 be 5f c6 33 3e 77 30 0b 3d 63 80 cb 3b
       -0.19136849 0.17556141 0.033981767 0.0062103732
0002d0 44 bc 31 be 17 7a 36 3e a7 63 8f 3b 4d 0c 14 bc
       -0.17356974 0.17820011 0.004375893 -0.009036136
0002e0 0e b5 40 3e eb 00 32 be 53 8f 81 bb c9 08 dc bb
       0.18819067 -0.17383163 -0.003953853 -0.0067149145
0002f0 60 4f 5f 3e fd 83 22 be 96 9d 62 3b b1 2f c4 3b
       0.21807623 -0.15870662 0.0034578792 0.0059871306
000300 52 61 3e 3e 7c 92 2c be da a7 48 bc 17 7b 79 3b
       0.18591812 -0.16852754 -0.01224705 0.0038067752
000310 7e 2b 39 3e 75 48 34 be f1 26 95 bb 0a 77 e7 b8
       0.18082997 -0.17605765 -0.0045517613 -0.00011037111
000320 02 04 32 be f4 ad 2d 3e e0 de 03 3b ed d5 21 3b
       -0.17384341 0.16960889 0.0020121858 0.002469416
000330 c9 47 2c be 59 de 40 3e 8c 57 69 bd d4 c3 71 bd
       -0.16824259 0.18834819 -0.056968257 -0.059024647
000340 63 57 2b be 5f be 26 3e a6 2b 33 3b e9 9f e8 3a
       -0.16732554 0.16283558 0.002733925 0.0017747852
000350 00 26 3c be 1e 84 33 3e f4 b1 75 39 a2 95 98 3b
       -0.18373871 0.17530867 0.00023431313 0.0046565095
000360 f5 93 0c 3e 73 17 4f be 6c 1d 3a 3c 8b c0 5a bb
       0.13728316 -0.20223789 0.011359554 -0.0033378925
000370 14 4e 18 be 81 83 3d 3e a3 ae 05 bd cc 02 e5 bc
       -0.14873534 0.18507196 -0.03263725 -0.027955435
000380 43 6f 42 3e c5 2d 36 be 7c 9e c4 bc 8e bd 0a bc
       0.18987755 -0.17790897 -0.024001352 -0.008468045
000390 dc de 35 be 12 61 31 3e 2d 70 82 ba 5b 9d ba 3b
       -0.17760795 0.17322186 -0.0009951644 0.0056950278
0003a0 f5 19 37 3e e7 96 3c be 53 80 c3 bb 9b ee 39 3c
       0.17880996 -0.1841694 -0.005966225 0.011348392
0003b0 af 34 44 be 02 1e 3d 3e 44 ec 75 3c 44 26 11 bc
       -0.19160722 0.18468478 0.015009943 -0.008859221
0003c0 17 c4 31 3e 94 00 2d be 20 b4 78 bb b7 24 42 ba
       0.17359959 -0.16894752 -0.003794916 -0.00074059836
0003d0 64 6c 33 3e ff 98 2e be d5 c8 5d bb 7f 23 9f ba
       0.17521816 -0.17050551 -0.003384163 -0.0012141316
0003e0 4d 52 39 3e 7e 6e 33 be 20 56 00 bb c6 35 8d bb
       0.18097802 -0.17522618 -0.0019582585 -0.004309389
0003f0 88 97 2b be bc 07 27 3e cc 40 0d 3b 88 0c 18 3b
       -0.16757023 0.16311544 0.0021553515 0.0023200829

net.0.bias f4 [64]
000000 53 2b 22 3e cb 80 8c bd e9 32 2d 3f 6e fb 3c 3f
       0.1583684 -0.06860503 0.6765581 0.7382115
000010 93 86 3f 3f 48 c9 36 3f b5 0d a9 3d 28 cc a0 bd
       0.7481472 0.7140088 0.082545675 -0.0785144
000020 fd f4 9a 3d d0 4b 05 bb 1e 69 d4 3d da ca 07 be
       0.07566259 -0.0020339377 0.10371612 -0.13260975
000030 6d d7 b5 be 75 31 e7 bd 1b 9a 30 3f d9 f1 ad 3d
       -0.3551592 -0.1128873 0.68985146 0.084933944
000040 dd 1f 84 3c 1f 21 37 be 48 52 f9 3c 0f b9 5f 3e
       0.016128475 -0.17883728 0.030434743 0.21847938
000050 02 bb 4f be ba 23 30 3d 9e cd cc 3c 9e e2 79 bd
       -0.20286182 0.04300282 0.02500039 -0.061007135
000060 12 d7 c6 be ac 4e 20 3e e5 53 ed be c8 27 81 3e
       -0.3883596 0.15655011 -0.4635307 0.25225663
000070 1a 62 0e 3f 66 9f 9a be b6 c8 2e 3d ba 08 16 3f
       0.5561844 -0.30199736 0.04267188 0.58607066
000080 48 8f 85 bf 6b dd 26 3f 1d 82 2a 3f 34 fa 75 3e
       -1.0434351 0.65181607 0.6660479 0.24021226
000090 9d ab 0c 3e a3 c8 0e bf c7 2f a3 be d8 db e2 bd
       0.1373734 -0.557749 -0.3187239 -0.11077088
0000a0 91 8e 39 3f 27 a9 80 bf 06 d9 43 3f 56 5f f8 bd
       0.72483164 -1.0051621 0.76503026 -0.12127559
0000b0 01 5b 65 3d d1 da 56 bf 7c c2 16 be e2 f3 cf bd
       0.05599499 -0.8392764 -0.14722627 -0.10153939
0000c0 2b 5f cd 3d 58 5b 3a 3f 91 51 2d 3f 4e 38 61 bd
       0.100279175 0.7279563 0.67702585 -0.054985337
0000d0 54 16 34 3f 07 cd 73 3d c5 43 4d 3d 2c e3 64 be
       0.7034657 0.0595217 0.05011346 -0.22352284
0000e0 83 c4 3f bd fa d7 2d 3f 8b d9 5e bf 0d 67 d0 bc
       -0.046818268 0.6790768 -0.87050694 -0.025439763
0000f0 e8 48 34 3f 38 1a 36 3f 57 e4 08 3f 47 f7 33 3f
       0.70423746 0.71133757 0.5347342 0.7029919

net.2.weight f4 [1, 64]
000000 4e fb 39 3d 8b 67 1b 3e 17 e1 8f 3d 0d ce f6 3e
       0.04540568 0.15176217 0.07025354 0.4820408
000010 49 aa f1 3e 96 d6 b4 be f0 59 8f 3c 12 9d 11 be
       0.4720023 -0.35319966 0.01749894 -0.14220074
000020 de 2d 4a 3d 4a 5d af bd 84 5f 0d bc 3b d2 21 3e
       0.04936015 -0.08562715 -0.00862873 0.15802853
000030 f3 3a 8f 3d 11 68 2a be 7c b5 87 be db ee 99 3c
       0.069936655 -0.1664126 -0.2650565 0.018790653
000040 0d d1 c4 bd 87 41 88 bd fa 0e 0e 3e 7d 21 25 be
       -0.09610186 -0.06653123 0.138729 -0.16126056
000050 9a 06 c8 3c 24 c0 c8 bd fb 69 05 3e 5f 84 25 be
       0.02441721 -0.09802273 0.1302871 -0.16163777
000060 65 ba 7d bd e1 fa ac 3c 83 5a 5b bd 63 a6 ff bd
       -0.061945338 0.021115722 -0.053553116 -0.124829076
000070 23 85 e4 bd cb 43 2c be a7 40 fd bd bd 53 8b 3c
       -0.11158206 -0.16822736 -0.12365847 0.017007703
000080 b5 10 83 3f 23 ce b7 3d cf 95 a7 be 8d e3 2b 3e
       1.0239474 0.08974864 -0.32731482 0.16786022
000090 a6 a0 66 3e b3 d1 cd 3d 04 e3 ae 3e cf b0 67 bd
       0.2252222 0.100497626 0.34157574 -0.056565102
0000a0 f9 cd 80 3e cb 53 7f bf 54 0d dc be c4 19 9a be
       0.25157145 -0.9973723 -0.4297892 -0.30097783
0000b0 b9 6d 45 bd 72 8f 76 bf 41 e6 f8 bd be de 0f 3e
       -0.048200343 -0.9631263 -0.121532924 0.14049813
0000c0 c5 39 1c 3d 05 a5 84 3e cd 1d 5a be c2 c3 1e be
       0.03814103 0.2590715 -0.2130043 -0.15504363
0000d0 a1 d0 ca be f4 4b 54 3d 6c a7 15 3e 9e 93 92 bd
       -0.39612296 0.051830247 0.14614648 -0.07157062
0000e0 15 8b 80 3d 1e 1e 11 be da 77 62 3f 2d ca 0e 3e
       0.06276528 -0.14171645 0.8846413 0.13944311
0000f0 de ac c3 3e 86 aa d7 3e 24 47 fc 3c 72 0b c1 be
       0.38217825 0.42122287 0.030795641 -0.37704045
